DQN-seed200-16000CumEps.pth (torch, 556904 bytes, 6 tensors)

layer1.weight f4 [128, 944]
000000 b3 34 a6 39 d7 13 6c bb 34 c9 e2 bb 4e 9b 9c ba
       0.0003170125 -0.0036022568 -0.006920958 -0.001194814
000010 48 c7 ad 3b 18 50 a7 ba 4e d7 40 bb a9 67 32 ba
       0.005303297 -0.0012764959 -0.0029425207 -0.00068056077
000020 5d dd 0f 3d 83 91 1c bd e8 15 c6 bd b8 f3 91 bb
       0.035123218 -0.03822471 -0.09672147 -0.0044541024
000030 a5 ea 1a 39 5a 60 59 bb 6a a4 5b bb 20 c9 9b bb
       0.00014773996 -0.0033169002 -0.0033514746 -0.0047542006
000040 93 18 91 bb 72 0c ae bb cf 3f a7 bb 09 e7 56 bb
       -0.0044279783 -0.005311542 -0.005104042 -0.0032791516
000050 41 f1 cb ba e6 65 03 3a 07 a7 62 3b 8e ef 8c 3b
       -0.001555957 0.00050124375 0.003458442 0.004301018
000060 89 9c 3b 3d 78 f3 12 3d f2 06 e1 bb 60 44 9e 3d
       0.04580358 0.03587672 -0.006867283 0.07727885
000070 a0 27 11 3d fb 1f 94 bd 95 31 77 3d a9 2e 83 3b
       0.03543818 -0.07232662 0.06035002 0.004003365
000080 ac 8e 61 ba c4 00 34 bb c8 c6 df bb 47 46 1d 39
       -0.00086043286 -0.0027466277 -0.0068291165 0.00014998867
000090 95 13 e1 b9 ac 30 bf bb 30 cb d6 38 98 00 07 bc
       -0.00042929934 -0.0058346596 0.00010242162 -0.008239888
0000a0 85 83 9b bb a6 56 53 3d 1c d6 f9 3c 1a 8a 0b bc
       -0.004745903 0.051596306 0.030497603 -0.008516813
0000b0 5b 4c f8 3c f3 75 52 bd 46 83 3a 3d 20 e2 21 3d
       0.030309847 -0.051382016 0.04553535 0.03952229
0000c0 b2 7e 05 bd 71 2c fd 3d cd fb b5 3a 81 c2 08 bc
       -0.03259153 0.12361992 0.0013884247 -0.008347155
0000d0 ea 85 39 bb 23 38 97 3a 48 35 01 bc aa b7 8c ba
       -0.0028308579 0.0011537116 -0.007886238 -0.0010735888
0000e0 ed c3 06 ba 1a 6f 01 bb db 65 22 3d 4a 3b a3 bb
       -0.00051408896 -0.001975006 0.03964792 -0.004981433
0000f0 11 b1 1c ba ad 5f 72 bd 62 51 56 3c 7d 7d 08 3d
       -0.00059773127 -0.059173275 0.013080927 0.0333228
000100 db 5f 09 be 62 52 04 3e 6f 46 3d 3d b7 68 48 3d
       -0.13415472 0.12922052 0.04620975 0.04892799
000110 d8 56 84 bb b9 c9 e5 bb 60 39 45 3a b3 14 5e bb
       -0.004038673 -0.0070125726 0.0007523503 -0.003388685
000120 82 d8 44 bb 59 3d 54 bb 0a 05 ac bb 37 19 fa 39
       -0.0030036275 -0.00323852 -0.005249624 0.00047702502
000130 42 c1 a1 bc af df 49 bc 8a 6d c3 3c 31 69 34 bd
       -0.019745473 -0.012321397 0.023855943 -0.04404563
000140 8d 5c 48 3d f3 4d 06 3d 88 26 15 bd c7 ba 78 bd
       0.04891639 0.032789182 -0.0364137 -0.060725
000150 35 82 8b 3d aa b5 0d bd ac 55 76 bb fc fc 7a ba
       0.068119444 -0.034597076 -0.0037587686 -0.0009574441
000160 80 69 8e bb e9 35 fd bb d3 a2 65 3a ef 04 38 bb
       -0.0043460727 -0.007727374 0.00087599194 -0.0028079113
000170 24 27 00 bc 14 53 e3 bb 54 99 58 bd e5 7f de 3c
       -0.007821832 -0.006937394 -0.0528806 0.027160594
000180 9f df e6 bc 5c ed 37 3d 07 db 23 3d 8c 76 a0 bc
       -0.028182803 0.044904098 0.040003803 -0.019587778
000190 24 34 81 3c e0 ea 55 bb 00 75 16 3d 01 3a 71 3d
       0.015771933 -0.0032641217 0.036732674 0.058893207
0001a0 cd e8 ed ba 10 05 0f b9 c3 8a 45 3a 6e 7f 61 bb
       -0.0018151045 -0.00013639429 0.0007535631 -0.003440823
0001b0 10 31 da bb 7f 2a 69 bb 0d 85 dc bb 0b 0d 14 bc
       -0.0066586807 -0.0035578308 -0.006729728 -0.009036313
0001c0 20 e9 9c bc 4d 20 05 3d e6 f5 8e bc f6 92 6e 3c
       -0.019154131 0.032501508 -0.017451238 0.014561405
0001d0 bb fb 99 3c cb f0 05 3d 00 f2 c6 bb 77 f7 d7 bb
       0.018796792 0.03270034 -0.006071329 -0.0065907794
0001e0 49 e4 d3 3d 53 f1 74 3c 24 2e 15 bc 63 b1 15 ba
       0.10346276 0.014950114 -0.009105239 -0.00057103316
0001f0 34 b3 ce ba ce 3b 68 bb 75 a2 93 bb 1e 01 c1 3a
       -0.001576996 -0.0035436037 -0.0045054504 0.0014725064
000200 c5 30 ed bb 3e d1 15 bc 7a 2b a6 bc 05 de a6 3c
       -0.00723848 -0.0091441255 -0.020284403 0.020369539
000210 94 ff d5 3c a8 82 ea 3c 11 22 33 3d 12 9d c5 b9
       0.026122846 0.028626755 0.04373366 -0.00037691795
000220 a5 6d 90 3c be 52 1a 3d eb 42 5d 3d d1 1c 16 3d
       0.017630408 0.037676565 0.054018896 0.036648575
000230 ed ff 5f 39 10 5e 11 3a f2 eb 0a bb 3f 4c 71 bb
       0.00021362277 0.00055453274 -0.0021197763 -0.0036819128
000240 f6 7b 06 bc c7 d9 d1 bb 85 d7 bb 3a 54 16 ec ba
       -0.0082082655 -0.006404135 0.0014331198 -0.0018012025
000250 f9 8f 01 3c e2 7f b1 3c 09 51 a3 3c dd 66 18 3d
       0.007907861 0.021667425 0.019936102 0.037207473
000260 d8 98 e8 3c 0f 4a 43 3c c4 81 81 3c 2f 69 9a 3c
       0.028393194 0.011919512 0.015808947 0.018848984
000270 1e e6 65 3d 93 75 44 3c 14 94 11 bc 55 72 c8 bb
       0.05612766 0.0119909225 -0.008885402 -0.006117145
000280 74 69 13 bc 1a 3a 04 bb 2d b1 77 ba 30 84 f9 3a
       -0.00899731 -0.0020176233 -0.00094487035 0.0019036587
000290 54 71 34 ba fc 72 d9 bb a1 c2 01 3d 93 eb d2 3c
       -0.0006883342 -0.0066360217 0.031679753 0.025747096
0002a0 37 42 ba 3c d6 93 f4 3b ea e1 9b 3b 9d 85 96 bc
       0.022736652 0.0074639125 0.0047571557 -0.018374259
0002b0 aa a2 c9 3c a3 a1 7a 3c 19 c4 ec 3c 41 8e 01 3d
       0.024613697 0.015297326 0.0289021 0.031629805
0002c0 28 fa 15 bb 4c 57 6a bb f2 20 75 3a d4 30 f4 3a
       -0.00228847 -0.00357576 0.00093509175 0.0018630275
0002d0 fc 3f 30 39 15 9e 4a bb 53 5e 13 bc 52 89 30 3a
       0.00016808504 -0.0030916978 -0.008994657 0.00067343295
0002e0 cd 81 95 bc 51 46 5f 3c 51 15 ef 3b eb 15 80 3b
       -0.01825037 0.013627605 0.0072962423 0.003908863
0002f0 4c 38 8e 3c a4 02 ba 3b 97 7a 05 bb 65 ab 43 3d
       0.017360829 0.0056765843 -0.0020367259 0.047770876
000300 85 b5 4f 3d e5 95 a2 3c 08 f2 bf bb 2e 04 cb bb
       0.05071022 0.019846866 -0.00585771 -0.0061955666
000310 bd bd f8 bb 72 ae 1d 3a b8 17 a4 3a 7e 1d 12 bc
       -0.007590978 0.0006015069 0.0012519276 -0.008918164
000320 87 50 51 3a 3c f0 be 3a 55 bc 04 3b ec 7d 41 bb
       0.0007984717 0.0014567445 0.0020253856 -0.0029524518
000330 18 09 97 3b 34 e7 9f bb 7a 02 0e 3c 7d ee 60 3c
       0.0046092384 -0.0048798565 0.008667583 0.013728735
000340 5b f9 7c 3c f5 70 a2 3c d6 08 b4 3c cc 40 0b 3c
       0.01544031 0.019829253 0.02197687 0.0084993355
000350 51 85 5a 39 11 df bd ba 71 14 73 bb 43 bf eb 3a
       0.00020839764 -0.0014486035 -0.0037091041 0.0017986078
000360 d6 7d a7 bb bb be a0 b9 17 d9 02 bc f0 eb c7 b9
       -0.0051114364 -0.00030659683 -0.007986329 -0.00038132025
000370 06 9c 3a bc 3f 86 25 b9 a1 ac 9a bb f7 38 46 3c
       -0.011389738 -0.00015785637 -0.004720286 0.012098542
000380 35 db 7e bc f8 8e a1 ba f0 19 b6 3c 3a 8d 4d 3c
       -0.015555193 -0.0012325933 0.022229165 0.012545878
000390 e1 17 79 bc b8 0f f4 3b ef 53 35 bb 15 d0 cb bb
       -0.015203447 0.007448163 -0.0027668437 -0.0062198737
0003a0 2d 03 f7 ba 53 6b d9 bb 4c 79 8a bb 33 68 3d bb
       -0.0018845551 -0.0066351085 -0.0042258855 -0.002890122
0003b0 cd 1e b1 3a c1 c0 fb bb 72 19 08 3b 73 1c 06 bd
       0.0013513208 -0.00768289 0.002076712 -0.032741975
0003c0 be 84 02 bc f4 3b 7d 3c a6 e8 6c bc 57 73 e4 bc
       -0.0079662185 0.0154561885 -0.014459765 -0.02788703
0003d0 3e 56 34 3c 6e 59 81 3c 77 12 10 3d 39 79 5d bc
       0.01100689 0.015789714 0.03517386 -0.013517671
0003e0 c2 0f 78 bb 13 10 d9 bb 3d b5 ad ba 5d 49 a4 bb
       -0.003785119 -0.0066242306 -0.0013252866 -0.0050136284
0003f0 81 cc a2 bb 3d 4e 00 bc ef ab cf ba 57 14 21 bb
       -0.0049682264 -0.007831153 -0.0015844087 -0.0024578774

layer1.bias f4 [128]
000000 b5 d7 ab bb 88 fa b5 3c c9 47 94 bc 1b bc cc bb
       -0.00524422 0.02221419 -0.018100636 -0.00624801
000010 c6 2c 04 bc 85 64 09 bc f8 66 f8 ba d4 f4 58 bc
       -0.008067315 -0.008385782 -0.0018951586 -0.013241965
000020 c8 da af bb 2e 56 16 3b a2 78 91 bc 4d d2 23 bc
       -0.005366657 0.002293955 -0.017757718 -0.00999887
000030 ba e9 34 3d 99 12 d2 3b a9 91 b1 3b 92 a5 1a bc
       0.04416821 0.0064109084 0.0054189754 -0.009438889
000040 a6 dd 4f ba 06 5e ea 39 1d e0 bb bb ff 77 87 3b
       -0.00079294515 0.0004470201 -0.0057335035 0.0041341777
000050 58 77 28 3d e3 81 31 bc 61 30 99 3a 73 7f 83 bc
       0.04112944 -0.01083419 0.0011687392 -0.016051983
000060 1e b2 29 bc 72 01 cc 3b 2b ef 36 bb 01 ea ce 3c
       -0.010357408 0.006225758 -0.0027913551 0.025258066
000070 0d 9f 0b 3b fb 3f 7d bc 0d 89 82 b9 f7 bb 90 bc
       0.0021304518 -0.015457149 -0.00024897643 -0.017667754
000080 e8 44 13 3b 8a 72 59 3d ca 45 09 bb df 82 0e bc
       0.0022471491 0.05308775 -0.0020946139 -0.008698194
000090 5a 20 1c 3c c6 51 ab bc 6d bc 7c 3c 59 e8 ff bb
       0.009529198 -0.020913016 0.015425784 -0.0078096804
0000a0 ab 48 42 bc a3 8c cc bb 48 45 bf 3d c8 04 8a b8
       -0.011858146 -0.006242351 0.09339386 -6.581243e-05
0000b0 3b 7b 8e 3c 8d af b9 ba dc 77 ab ba 9f 5e e7 bb
       0.017392745 -0.0014166698 -0.0013081986 -0.0070608403
0000c0 66 2d 68 3b cf 05 2e 3c 11 f8 dd ba 29 78 04 bb
       0.003542745 0.010621502 -0.0016934891 -0.0020213223
0000d0 e5 9c 8c ba 00 f3 e5 bb 0d b5 d4 bb 24 b7 c1 3b
       -0.001072791 -0.0070174932 -0.0064913095 0.0059117246
0000e0 c2 2d 56 bb b9 a8 be 3a ac d0 24 3d 00 71 0f bc
       -0.0032681082 0.0014546133 0.040238068 -0.008754969
0000f0 6f 87 e8 ba 11 8f b4 b9 d9 5a d3 bb 54 e6 14 3c
       -0.0017740558 -0.00034438868 -0.006450039 0.009088118
000100 5f eb ee 3a 28 f5 b2 3b 8d 95 60 bb 9c 21 0e bc
       0.0018228105 0.005461354 -0.0034268827 -0.008675005
000110 45 93 ca ba ba 61 1d bb 24 09 a0 3c 33 dc 73 bc
       -0.0015455267 -0.0024014548 0.019535609 -0.014884043
000120 47 01 99 3b ed ba 23 3b 79 37 dc 3b 38 7f 4f 3b
       0.0046693417 0.0024983243 0.00672048 0.0031661522
000130 af 77 d2 3b 8f 72 02 bb a4 25 58 bb 0a b2 4f bb
       0.006422959 -0.0019904708 -0.003298142 -0.0031691813
000140 de 58 cc b9 59 9a 9c bb c9 00 72 ba 9a 64 9d 39
       -0.00038976123 -0.004779142 -0.00092316844 0.00030020328
000150 37 be 75 bc b5 57 a4 bb 27 bf e8 ba d3 1e de b9
       -0.014998964 -0.0050153383 -0.0017757163 -0.00042366105
000160 e9 00 de 3a ca 5b f4 3b 16 34 dd ba ad 11 45 3b
       0.0016937527 0.007457231 -0.0016876485 0.003007035
000170 b3 60 19 bc 14 d9 0a 3c 46 f7 94 3b d9 26 fc 3a
       -0.009361434 0.008474607 0.004546079 0.0019237652
000180 e3 8e e1 bb 0c 67 28 3b 19 46 ae 3c d7 f2 f3 bb
       -0.0068834885 0.0025696186 0.02127366 -0.0074447202
000190 e4 3b 88 3c 92 cb a2 3b bc 62 eb bb c4 d4 33 bc
       0.01663012 0.004968115 -0.007183401 -0.01097602
0001a0 76 2b 01 bb e9 07 39 bb 79 e8 85 bb 5e 63 9b ba
       -0.0019709743 -0.0028233475 -0.004086551 -0.0011855175
0001b0 1a 9a 7d 3a 46 5a 18 3b ce 9a d5 3b cb 70 d5 bc
       0.0009674147 0.0023247167 0.0065186983 -0.02605476
0001c0 e2 f7 d8 ba c0 ee 97 bc 01 08 22 bc 9b 8e 26 bc
       -0.0016553367 -0.018546462 -0.009889604 -0.010165836
0001d0 a9 e7 80 bb 04 da 31 bc 27 e6 49 bc 13 30 3a ba
       -0.003933866 -0.010855202 -0.012322939 -0.00071025005
0001e0 f1 3f 15 3d dd f7 b8 3a ac df 3f bb 32 54 0e bc
       0.036437932 0.0014111955 -0.0029277606 -0.008687066
0001f0 6f 1c 42 bc de 92 2c bc 61 de 36 bc 2e ec 4e 3d
       -0.011847599 -0.010533063 -0.011161418 0.050518207

layer2.weight f4 [128, 128]
000000 e5 48 b0 bd b5 33 6a 3d c7 93 b1 3c 47 06 e2 3b
       -0.086076535 0.057178218 0.021676911 0.006897721
000010 85 17 1d 3d 39 14 0d bd e0 d9 91 3d 15 1f fe 3b
       0.038352508 -0.034443114 0.071216345 0.00775517
000020 6f b0 f2 bb e1 e6 05 3d 53 da 9a bc b8 97 cb bc
       -0.0074062864 0.032690886 -0.018902933 -0.024852619
000030 33 e9 b4 3c 78 41 55 3d 9a 79 e3 3d bb c6 80 bd
       0.022083854 0.05206439 0.11107178 -0.06287905
000040 fc 03 03 3e 0e 15 83 3c 81 93 35 3d fe b0 d9 bc
       0.12794489 0.01600125 0.044330124 -0.026573654
000050 93 79 e1 bc 75 95 95 bc f2 25 de bd 82 11 82 bd
       -0.027523791 -0.018259743 -0.10847081 -0.063509956
000060 03 80 17 3c 70 5c 37 bd bf 40 21 3c a2 e0 4f 3c
       0.009246829 -0.04476589 0.009842097 0.012687834
000070 b3 57 a4 3c f1 df bc 3d f3 f1 6d bd bc a0 81 bc
       0.02006135 0.09222401 -0.05809207 -0.015823714
000080 8d 34 f3 bd 11 1a 0a bc a0 34 7b ba e6 f7 92 3d
       -0.11875258 -0.008429066 -0.0009582732 0.07176189
000090 d4 a7 cf 3b 6c ee ad bd 38 18 c3 3c 86 65 6d 3c
       0.0063371453 -0.08492741 0.02381526 0.014489537
0000a0 85 ac bf bb ec de 89 bd 56 11 b1 bc 2b b7 e0 3c
       -0.0058494234 -0.06731972 -0.021614712 0.027431091
0000b0 52 1e b9 3c f7 fd 93 bd fd 52 fe 3c f7 7d 12 3c
       0.022597466 -0.07226174 0.031045431 0.008941165
0000c0 df 35 5f bc e9 d9 d0 bd be dd 76 3c aa 1c c9 3c
       -0.013623684 -0.10197813 0.015067516 0.0245498
0000d0 ec b0 cf 3c aa e4 ae 3c c2 38 85 3d 70 8c fe 3d
       0.025352918 0.02134927 0.06504966 0.1242913
0000e0 fa 0a c7 3b c3 e5 6e bd 62 2d 4a bd da 68 08 bd
       0.0060743066 -0.058324587 -0.049359687 -0.03330312
0000f0 ae 89 e3 3c d9 bc 2e 3b 7b 00 c8 bd ef 25 d1 bc
       0.027775612 0.0026662855 -0.09765717 -0.025530783
000100 04 41 8f bd 80 9a d9 bb 05 c2 2d 3a 49 5e 04 3d
       -0.069948226 -0.0066407323 0.00066283374 0.03231648
000110 8f 38 f4 3c bf b6 ea 3c 28 13 bc b8 f3 a6 ff bd
       0.029812125 0.028651593 -8.968107e-05 -0.12483015
000120 dd 2a 5c 3d f9 ba 53 bd 4b a5 85 3d e7 50 3d bc
       0.053751815 -0.051691983 0.06525668 -0.011554933
000130 10 87 f1 bd 01 a9 60 bc c1 3e e3 3d b7 df 8f 3c
       -0.11793339 -0.013712169 0.11095954 0.01756273
000140 f7 52 f5 3c 1c 03 39 bd 4c d5 3a 3d f6 bd 1e bd
       0.029946787 -0.04516898 0.045613572 -0.03875538
000150 0c a5 0d 39 02 d6 8a bc ad f8 95 3c 82 be 8e 3d
       0.00013508293 -0.01694775 0.018307054 0.0696993
000160 63 4b f6 3c 62 53 89 bc f4 85 22 3d d4 af a7 bb
       0.030065244 -0.016763393 0.03967853 -0.005117396
000170 68 48 18 3d 9f f0 fa bd ca 69 7f 3c d3 9f 27 bc
       0.037178427 -0.12252926 0.015589187 -0.010230976
000180 14 2a 64 3d a4 60 02 3e 76 6e 41 3c 69 17 32 bd
       0.05570419 0.12732178 0.011806121 -0.043479357
000190 88 b2 cd 3d 4d b9 ed bc c9 26 50 3d 93 70 a7 3d
       0.10043818 -0.029019022 0.05081824 0.08175769
0001a0 9a b7 40 3c 77 7e 81 3c 1a 2e c6 3c d3 c9 16 3c
       0.011762524 0.015807373 0.024191905 0.009203392
0001b0 69 0c 66 bd a3 bb 1d bd 2b 29 b5 bd 62 12 4b 3b
       -0.05616418 -0.038509022 -0.08845743 0.0030986299
0001c0 df c7 66 bc 66 fb 17 bd b8 ac 83 bd 9d a2 73 3c
       -0.014085739 -0.037104987 -0.06429428 0.014870313
0001d0 6c d8 14 bc e9 a8 2a bd 39 0f f1 bc 14 64 2a 3d
       -0.009084802 -0.04166499 -0.029426204 0.04159935
0001e0 b1 cb 97 bc 44 20 96 bb 04 04 31 bc d3 81 de 3c
       -0.018529745 -0.004581483 -0.01080418 0.027161514
0001f0 07 87 7c bd a1 f3 6a bb e9 f8 18 3d 7c 59 05 bd
       -0.06165221 -0.003585078 0.037346754 -0.032556042
000200 a0 29 55 bd 68 f1 87 bd 56 61 44 3c 70 b5 99 bc
       -0.05204165 -0.066378415 0.011986097 -0.018763274
000210 cc 41 0a 3d 85 52 7a bd ad cf 6d 3d c3 4e 9b 3a
       0.033754155 -0.061113853 0.058059383 0.0011849034
000220 7a 47 0f bb 92 64 b8 3c 4e 9d 7e 3a b4 b7 cd 39
       -0.0021862672 0.022508893 0.0009712771 0.00039237516
000230 19 7e 2f bd b7 ca 0b be f4 a7 23 3c ff 81 46 3c
       -0.042844865 -0.13651548 0.009988774 0.012115954
000240 5e 47 d1 3c bd 0a 36 bc 50 7c a3 3c cc ce 59 bc
       0.025546726 -0.011110959 0.019956738 -0.013293933
000250 12 90 a2 bc be 63 4f bc 87 d4 04 3c e3 4a 91 bc
       -0.019844089 -0.012658058 0.008107311 -0.017735904
000260 88 ed 2e bd 05 3f da bb f8 d4 93 3c f2 dd 8e 3c
       -0.042706996 -0.0066603445 0.018045887 0.017439816
000270 1b 98 6c b8 f9 24 27 3d 00 61 f1 bc c4 8f b1 3a
       -5.6408444e-05 0.040806744 -0.029465199 0.0013546874
000280 99 e9 4a bd bd e9 08 3c 4c 95 59 3b 47 45 fc 3c
       -0.049539182 0.008356509 0.003320056 0.030794753
000290 0d 07 39 3d 3e b7 bd bd 94 aa 5f 3c a2 18 c7 bc
       0.04517274 -0.09263466 0.013651509 -0.024303738
0002a0 f5 59 b8 bb 7a 45 e6 3c 3a 7b 4b 3c f4 53 c8 b9
       -0.005625958 0.0281093 0.012419516 -0.00038209523
0002b0 81 ad 46 bc 5e 54 a0 bb 11 2f 13 3c ed c5 f2 3a
       -0.0121263275 -0.00489287 0.0089833895 0.0018522121
0002c0 2b 82 26 3c d0 c3 f8 bb f7 5c f9 3d 48 85 9f 3c
       0.01016287 -0.007591702 0.12175935 0.019472733
0002d0 d3 9b bc 3c f1 20 d9 3b 33 2f 0b 3c cb dc bd bd
       0.023023522 0.0066262414 0.00849514 -0.092706285
0002e0 bd 5b 6f 3c ac 5c ac 3c d2 ae a1 bd 07 92 0a bd
       0.014609274 0.021040283 -0.078946725 -0.03383067
0002f0 11 da 08 3d 93 f2 6e 3c c0 54 8e 3c a5 9e ed ba
       0.03341109 0.014584201 0.017374396 -0.0018128945
000300 1b 5f b9 bd fc bb 03 3c 6c aa c7 3c d1 ed 36 bc
       -0.09051343 0.008040424 0.024373256 -0.011165098
000310 12 96 27 3d 28 df 02 3d d9 a6 51 bc 9d 8b 1c bd
       0.040914603 0.0319511 -0.012796127 -0.038219083
000320 12 28 b6 3b 21 21 b7 3c 0c 9a 8d bd 67 3e ed 3c
       0.005558976 0.022354664 -0.06914148 0.02896042
000330 bf 60 5e 3b 4c 53 be bc 67 ac fd 3c 86 99 09 3c
       0.0033932177 -0.023233078 0.030965997 0.008398419
000340 42 15 d4 3c 1b 76 cf 3c 9f 60 af ba 77 a9 2c bd
       0.025889043 0.025324872 -0.0013380236 -0.0421538
000350 65 1f 8d bc c9 83 fb 3a 55 53 00 3d fb 68 e1 3c
       -0.017226884 0.0019189055 0.03132947 0.027515879
000360 e0 aa 00 bc a8 0b 6d bd 4f 09 5c bd ed 17 85 3a
       -0.00785324 -0.057872444 -0.053719815 0.0010154225
000370 10 50 f9 3c 59 61 e8 bd db 9f 99 3d 8e a0 aa bc
       0.030433685 -0.113466926 0.07501193 -0.020828512
000380 44 6c d3 3c 43 4a 45 3d 90 48 2d bc 54 56 47 3d
       0.025808461 0.048166525 -0.010576382 0.048666313
000390 b9 46 7c bd 8e bd ac bd 66 e7 76 3d 0d ba c1 3b
       -0.061590884 -0.08434592 0.060279272 0.0059120716
0003a0 fa ed af ba 48 f8 38 bc 3e dd 63 3c 38 42 15 bc
       -0.0013422363 -0.011289664 0.013907729 -0.009110026
0003b0 b8 fb 69 3d 03 19 8b 3b 23 91 52 3d 08 59 25 3c
       0.057124823 0.004244925 0.051407944 0.0100920275
0003c0 b5 b7 d5 3c 30 89 27 3d 68 b2 a3 bd 3e 58 14 3c
       0.026088575 0.040902317 -0.07993013 0.009054242
0003d0 78 9d 32 bb 84 bd 36 3c f0 a4 44 3c 54 9c 22 3c
       -0.0027254503 0.0111535825 0.012002215 0.009924967
0003e0 d2 2d 33 3c 60 9b b6 bd be 3b c4 3c 90 10 83 3c
       0.010936217 -0.08916354 0.023954269 0.015999109
0003f0 d1 a4 22 bd 94 98 00 3b 00 c6 53 3b 1f d0 db bc
       -0.039707962 0.0019622194 0.0032314062 -0.026832638

layer2.bias f4 [128]
000000 18 12 ee bc ee e4 00 3c f8 57 bf 3d 7f bc 42 3c
       -0.029061362 0.007867081 0.093429506 0.011885761
000010 4e 6d c8 3d 5e 3f f1 bc af c6 29 be 4c 3d c3 bc
       0.09786473 -0.029449161 -0.16579698 -0.02383294
000020 22 b1 df 3b f0 16 45 3d 84 40 02 3e ea b7 5c 3c
       0.006826536 0.048117578 0.12719923 0.013471583
000030 6e 7c fa 3d e2 31 18 bd 63 42 49 3b 9d 19 71 bd
       0.12230764 -0.037156947 0.0030709736 -0.058862317
000040 6b b4 97 3c ea 20 e8 bc 3d d3 9a bb dc 0d f2 3d
       0.018518647 -0.028336007 -0.0047248886 0.1181905
000050 2e 6b 8d bd 63 13 69 bc a5 7f cb 3d 2a d9 17 3e
       -0.069052085 -0.014225814 0.09936456 0.14828935
000060 07 a4 ab 3d 21 ac 28 3c 9c 2f 09 3e 93 7c 11 3e
       0.08380895 0.010294945 0.13397068 0.14207678
000070 9c 29 b0 3c 71 34 12 bd b3 f8 5c 3c cf df fc bc
       0.021504216 -0.035694543 0.013487029 -0.030868439
000080 02 28 96 3c b2 82 10 bd b9 51 8a bd f6 1a f9 3d
       0.018329624 -0.03528089 -0.067538686 0.121633455
000090 2e a0 92 3d a5 5b 7a 3b 42 5a 04 3e f0 ad b4 3c
       0.07159458 0.0038201597 0.12925056 0.022055596
0000a0 84 83 9d 3d 6c 2d 64 bd 6b c4 0c bc 4d cc b5 bd
       0.076911 -0.05570738 -0.008591752 -0.08876858
0000b0 1a 5b 4e bc 78 8b 95 ba fd 18 ba bc 4f 81 98 bd
       -0.0125949625 -0.0011409363 -0.022716993 -0.07446539
0000c0 e2 25 e7 3d 52 03 e4 3d d6 7f af 3d fb a6 14 bd
       0.112865224 0.11133446 0.08569305 -0.036292057
0000d0 cc c9 b3 3d 9b fe 88 bd b5 79 7f bd 43 8c a4 bc
       0.08778724 -0.06689187 -0.06237193 -0.020086413
0000e0 95 dd 4f bd c1 8e 92 3d 5e a0 8b 3b e4 6b fd 3b
       -0.050748426 0.071561344 0.0042610606 0.007733809
0000f0 ff 4d 2a 3c fe 02 de 3d 1f 6d 80 bc 22 6d b3 bb
       0.010394572 0.108404145 -0.015677033 -0.005475656
000100 89 f9 63 3c 3e 0f 34 3c 04 4f bf 3d d1 93 3d 3c
       0.013914474 0.010989962 0.09341243 0.011570887
000110 f6 aa f6 bc ce 39 07 bd ce b2 aa 3d e7 80 12 3c
       -0.030110817 -0.03301411 0.083348855 0.0089418655
000120 aa be af 3d e7 95 cf 3c c0 2a 98 3c c7 3b 9d 3c
       0.08581288 0.025340034 0.018575072 0.019193543
000130 11 d1 de 3d a9 6a 0f 3c c4 40 ee 3d 5a e6 a5 3a
       0.1087972 0.008753457 0.11633447 0.0012657151
000140 01 fc 78 3d 4d b2 af bc 02 61 c8 3d 6b 4e a4 39
       0.060787205 -0.021447325 0.09784128 0.00031338944
000150 f0 c8 a2 bd db a0 be 3c 57 28 54 3d be 11 d9 bc
       -0.07948482 0.023270061 0.051796284 -0.026497718
000160 ec cc 7d bc e4 bc 6b bb cb a4 6e bd cf 79 99 3d
       -0.015490752 -0.0035970742 -0.058262628 0.07493936
000170 bb cd 03 bd eb 6c 6f 3c 01 8b ad bd fa fa cf 3d
       -0.03217862 0.01461337 -0.084737785 0.10155292
000180 fb 4b 30 bc 1e ed 46 bd df 3e e1 3d a5 23 8f bd
       -0.010760303 -0.048565976 0.1099832 -0.069892205
000190 c7 67 e8 b9 0b 8c ac 3c 35 a0 a3 3a 79 99 fc bc
       -0.00044327808 0.021062871 0.0012483659 -0.0308349
0001a0 f5 a3 7b bc a0 fd 2c 3c e4 12 d3 3d cf 22 71 3d
       -0.015358915 0.010558516 0.103063375 0.058871087
0001b0 67 16 7e 3b 9e cb 85 3d 07 d4 17 bd 7c ee 8a 3c
       0.0038770677 0.065329775 -0.03706744 0.016959421
0001c0 1a 31 a2 bc 5b c9 2d bd b1 d0 7f bc 8e 33 86 3d
       -0.019798804 -0.042428356 -0.015613721 0.06552802
0001d0 1f eb 8d bd 5c bb 9e bb c2 81 64 3c a2 03 10 bc
       -0.069296114 -0.0048441123 0.013946952 -0.008789929
0001e0 64 c4 09 3e 2a 3b 28 3d 15 2c b0 3d df 4a 09 3e
       0.13453823 0.04107205 0.08602158 0.13407467
0001f0 14 4c b5 3d 80 7a 43 3e fe 7d bd 3d 47 2a 0e bd
       0.088524014 0.19089699 0.09252547 -0.034708288

layer3.weight f4 [8, 128]
000000 02 08 9d 3e 44 ed 4d 3d 54 76 b2 3d 86 0f 6d 3d
       0.30670172 0.050275102 0.087139755 0.057876132
000010 65 4c ef 3d de ae eb bd 03 75 76 be 89 90 8f be
       0.11684493 -0.11507963 -0.24068074 -0.2803996
000020 08 d9 a8 bd a1 f3 b2 3d 88 9f d3 3d d5 38 33 3d
       -0.082445204 0.08737875 0.103331625 0.04375537
000030 7c 01 f5 3d 90 bc e2 bd fc 66 0e 3f 34 8f 7f 3e
       0.11963174 -0.11071122 0.5562589 0.24956971
000040 2b 36 17 3f a2 50 ad 3c 06 81 59 3e dc 8b 9e 3d
       0.5906703 0.021156613 0.21240625 0.0774152
000050 e1 4d 33 be 34 7b 4e 3e 30 92 8a 3d 94 75 c5 3d
       -0.17510177 0.20164186 0.06766164 0.09641567
000060 b6 16 05 3e 7e 62 dc bc 47 e4 63 3d b2 ed 24 3d
       0.12996945 -0.026902433 0.055637624 0.040265746
000070 e1 e8 3b 3d d7 c7 05 be f4 0f 67 3d 5f cd b8 3c
       0.045876388 -0.13064514 0.0564117 0.022558866
000080 43 90 5b 3d a7 f2 2d 3d e4 92 f7 bd b3 57 c1 3d
       0.053604376 0.04246774 -0.12088564 0.094405554
000090 f7 1e 9b 3d a9 36 14 3d 4f d4 63 3d 7a c3 73 3f
       0.075742655 0.03618494 0.055622395 0.9522015
0000a0 eb c7 34 3e 64 3e 2e be 20 07 95 3d 3d 25 8b bd
       0.17654388 -0.17015988 0.072767496 -0.06794212
0000b0 1b 9b 6e bd 39 78 07 3e f5 51 66 bd 49 5c 9c bc
       -0.05825339 0.13229455 -0.056230504 -0.019086974
0000c0 0a 0e e4 3c 0f 86 fd 3d 69 b6 ab 3d 5e 5a 69 bd
       0.027838726 0.12379085 0.08384401 -0.056970946
0000d0 ab 17 74 3d 51 6c 8f bd 18 4a 98 bd e4 42 59 bf
       0.059592884 -0.070030816 -0.07436007 -0.8486769
0000e0 df cf 93 bd ab 5f ed 3d b4 cf fc 3d 8d e5 da be
       -0.07217383 0.11590513 0.12344304 -0.42753258
0000f0 7e a3 13 bc 79 ed d5 3d 61 fd bb bd f6 0b 0f be
       -0.009011148 0.10445685 -0.091791876 -0.13969406
000100 b3 22 a7 bd d3 09 bc 3d ef 2e 0c 3e ef cd a5 3e
       -0.08160915 0.09181561 0.13689779 0.32383677
000110 12 29 06 be 73 d4 33 bd c2 5b 7c 3d 91 11 6c 3d
       -0.13101605 -0.04390378 0.061610945 0.05763394
000120 48 7f f9 3d 03 0b 2a 3e 9a 98 10 3c ee 77 0e 3f
       0.1218248 0.16605763 0.008825446 0.5565175
000130 b9 1d 8f 3d 82 7a 7b 3f 42 29 9e 3d fb 6a 85 be
       0.06988091 0.9823381 0.07722713 -0.26058182
000140 16 55 88 3d 9e 1c 2d bc 91 12 c3 3d fb 76 0e 3d
       0.06656854 -0.010565905 0.09525026 0.034781437
000150 61 7a ea bd f4 14 62 3d ff a0 34 3d f5 4c eb bd
       -0.11449123 0.055195764 0.04409885 -0.11489288
000160 9b f9 2a be e2 45 44 3d df 31 4d 3d 2c 45 69 3d
       -0.1669678 0.047918208 0.05009639 0.056950733
000170 4a af da 3d 0e 42 93 3e d9 74 03 be 81 7b 90 3d
       0.10677965 0.28761333 -0.12837543 0.070548065
000180 19 93 87 bd e9 35 80 bd 1f 14 56 3d 92 bc a5 bc
       -0.066198535 -0.062602825 0.052265283 -0.020231519
000190 76 af fd 3c fb 6a a5 bb 50 d3 88 3e 2b c7 81 bc
       0.030967455 -0.0050481535 0.2672372 -0.015842041
0001a0 3d 1f 8e be d0 62 37 be f2 93 bd 3d eb 65 15 3d
       -0.27758208 -0.17908788 0.09256734 0.03647415
0001b0 a1 60 22 3e 5d 84 e3 3d 09 70 82 bd 87 95 a2 3d
       0.15857174 0.11109231 -0.06369025 0.07938676
0001c0 81 5f da 3c c2 1e 42 bc d2 c7 1c bc a1 8a 09 3e
       0.026656868 -0.011848154 -0.009569125 0.13431789
0001d0 29 74 35 be d8 e1 01 3d 3b 7a 7b 3c 83 a9 5c 3f
       -0.17720093 0.031709522 0.015348966 0.86196154
0001e0 be e8 0e 3d ca 7e 09 3e 32 53 13 3e 77 b0 7e 3d
       0.03488993 0.13427272 0.14387205 0.06218001
0001f0 62 e6 75 3d 03 bd c2 3d 1e ad 5d 3d 3c 07 5d bd
       0.060034163 0.095087074 0.054120176 -0.053961977
000200 00 95 f9 3d 5e 3e ba 3c 55 29 31 3d 8e 3d 76 3d
       0.121866226 0.022734817 0.043252308 0.060117297
000210 a8 c5 a3 3d d8 40 06 3b 58 7a 21 bd 6f 53 81 be
       0.07996684 0.0020485427 -0.039423317 -0.25258967
000220 1d ba f3 bd 04 07 03 3d 70 46 d9 3d 3f 96 bb 3d
       -0.11900733 0.031989112 0.10609138 0.091595165
000230 de 45 fe 3d 8b 21 ba bc f8 bb 7e 3f 26 da 0e be
       0.1241567 -0.022721073 0.9950557 -0.13950405
000240 82 3f 5c 3e ae f1 ae bd 3a 88 62 3e 5e 5b f2 3d
       0.21508601 -0.085421905 0.22122279 0.11833833
000250 7f 41 bd bd 33 98 5e 3e 70 ff 97 3d e1 87 9c 3d
       -0.09241008 0.21737747 0.07421768 0.07643104
000260 40 60 f8 3d 69 56 9b 3f c1 46 8e 3d a9 30 f8 3d
       0.12127733 1.2135745 0.06947089 0.12118656
000270 bb 22 8f 3d ce b1 c5 bd b0 f2 1b 3e 84 ea a9 bb
       0.06989046 -0.09653054 0.15229297 -0.005185427
000280 ac 88 97 bd f7 bd 64 bc 53 53 07 be 47 9e df 3c
       -0.07399115 -0.013961307 -0.1321538 0.027297152
000290 dd cc ef 3d 25 e4 0c 3e d7 29 9d 3d 31 93 25 3f
       0.117089964 0.13758905 0.07673996 0.6467772
0002a0 ff e6 07 3e 6a 18 e1 bd 39 82 32 3d a5 97 09 be
       0.13271712 -0.10990985 0.04358122 -0.13436754
0002b0 67 2a f3 3c 78 d9 81 3d 58 55 a7 3d 15 48 a8 bd
       0.029683305 0.06340307 0.08170575 -0.082168736
0002c0 83 69 e4 3d aa 04 26 3d 33 d6 b5 3d ed d0 b7 bd
       0.11152937 0.04053179 0.08878746 -0.08975396
0002d0 9c 69 17 3e 65 68 bf bd 47 b5 7e 3c c6 1e 4f 3e
       0.1478638 -0.093460836 0.01554615 0.20226583
0002e0 03 90 09 be 18 7f cc 3d dc f8 92 3d ff 27 79 be
       -0.13433842 0.09985179 0.071763724 -0.24331664
0002f0 82 e2 3d 3d f5 cf 0d 3e 1c f9 11 3e 9e 38 74 be
       0.046358593 0.1384886 0.14255184 -0.23849723
000300 5d 01 5d 3e 58 a0 02 3d 97 aa aa 3d 7a 41 7b 3d
       0.21582551 0.031891197 0.08333319 0.06134174
000310 14 ee 52 be 46 32 09 bd 9d bc 8d 3d db e4 78 3d
       -0.20598632 -0.03349521 0.06920741 0.06076513
000320 ab 45 df 3d 6b 6e 31 3e ed 62 0a 3e 7f 2b 3b 3f
       0.1090196 0.17327277 0.135143 0.73113245
000330 c4 59 80 3d ef cd 6a 3f a4 11 57 3d 49 85 38 be
       0.062671214 0.9172048 0.052507058 -0.18019594
000340 d7 bc 73 3d e7 3c b0 be f6 d0 0d bc 0a d5 97 3d
       0.059506264 -0.34421465 -0.008655777 0.07413681
000350 02 40 2b bd d4 da 08 3d cf 33 8b 3d 5c 27 bf bd
       -0.04180909 0.033411816 0.06796991 -0.09333679
000360 db 4f 3b be 13 77 9c bd e4 8e 02 be f3 3a 5b 3d
       -0.18292181 -0.07639899 -0.12749821 0.053523015
000370 a1 a3 88 bf c2 06 28 3f af 9e 1b be 29 6b 37 3d
       -1.0674936 0.6563531 -0.15197252 0.04477993
000380 74 73 40 3d 10 7b 83 bd ff 58 9d 3d b8 ec 37 bc
       0.046985105 -0.06419957 0.0768299 -0.011225872
000390 84 35 34 3d b5 9d ab 3d cc 28 37 3e 1f 85 8e bc
       0.04399635 0.083796896 0.17886657 -0.017397461
0003a0 89 af 34 be bd 45 bf bc 97 f1 d6 3d 65 0a 57 3d
       -0.17645086 -0.023348683 0.10495298 0.052500147
0003b0 2f 16 34 bc cb 1e 0d 3e 92 e1 92 bd 27 30 e9 3d
       -0.010991617 0.13781278 -0.071719304 0.113861375
0003c0 b0 d3 cf 3a f9 fb 68 bd a3 01 96 3b d1 b0 c9 3d
       0.0015855934 -0.056880925 0.004577832 0.09848178
0003d0 8b f5 2f be 32 6b 26 3d 55 90 e8 3c a5 ce 04 3f
       -0.17183511 0.040629573 0.028389135 0.51877815
0003e0 61 1f c5 3d a5 41 5d 3d a2 99 ff 3d e5 b7 5c 3d
       0.09625126 0.05401768 0.12480475 0.053886313
0003f0 51 e6 95 3d ca c2 25 3d 56 1c a1 3d 91 2e 65 bd
       0.0731932 0.04046897 0.07866733 -0.055952612

layer3.bias f4 [8]
000000 54 3d 15 3e 59 ad c4 3d 69 f9 eb 3c 3c ff 61 3d
       0.14574176 0.09603376 0.028805451 0.05517505
000010 45 81 9e 3c 77 10 d9 3d e4 f6 83 3d 6e c7 18 3d
       0.01934875 0.105988435 0.06443575 0.037299566
