DQN-seed200-32000CumEps.pth (torch, 556904 bytes, 6 tensors)

layer1.weight f4 [128, 944]
0	0x3c13d750	0.0090235025
1	0x3c08e93a	0.008356387
2	0x3bff6643	0.007794173
3	0x3c0fb540	0.008771241
4	0x3a6ec778	0.00091087027
5	0xb965b208	-0.00021905464
6	0xba0497fa	-0.00050580467
7	0xb8f4f2a5	-0.00011680023
8	0x3ce75ed1	0.028243454
9	0x3c99295b	0.018696478
10	0x3beda488	0.0072522797
11	0xba486cd2	-0.000764561
12	0x37d4c138	2.5362344e-05
13	0xba1587cb	-0.00057041337
14	0x3c0999f5	0.008398523
15	0x3c05b339	0.008160406
16	0x3c06972b	0.008214752
17	0x3c042c2b	0.008067171
18	0x3c04be5d	0.008102027
19	0x3c09cb99	0.008410358
20	0x3c0ebda6	0.008712208
21	0x3c146514	0.009057302
22	0x3a1bc2d0	0.000594181
23	0x3a4198e7	0.000738515
24	0xbd8470c1	-0.064668186
25	0x3d78f97a	0.060784794
26	0xbb1b9c4b	-0.002374428
27	0x3bfd2de5	0.0077264183
28	0xbc831df6	-0.016005497
29	0x3ce27806	0.027645122
30	0xbc9911d3	-0.018685257
31	0x3a342e1f	0.00068733277
32	0x3c109bcc	0.008826207
33	0x3c0b430b	0.008499871
34	0x3bffef19	0.007810485
35	0x3c135b64	0.008993957
36	0x3c11cab6	0.008898428
37	0x3c02b13c	0.007976826
38	0x3c1339aa	0.008985916
39	0x3bf7f252	0.0075667286
40	0xba559740	-0.0008147843
41	0x3b47cc3b	0.003048672
42	0x3c3dcd13	0.011584538
43	0x3d0015f3	0.031270932
44	0xbcabc95e	-0.020970043
45	0xbdb40ebc	-0.08791873
46	0x3c9aee18	0.01891236
47	0xbd161d05	-0.03664877
48	0x3cae74cc	0.021295927
49	0x3cfeccf2	0.031103585
50	0x3c16e6c4	0.009210292
51	0x3bf75484	0.007547917
52	0x3c0b054a	0.008485148
53	0x3c164461	0.009171576
54	0x3bf9e70a	0.007626419
55	0x3c1009df	0.008791416
56	0x3c1190aa	0.008884588
57	0x3c0d81d4	0.0086369105
58	0xbc953712	-0.018214736
59	0xbd83d975	-0.06437961
60	0xbd4c87c0	-0.04993415
61	0x39809966	0.00024528353
62	0xbc818899	-0.015812205
63	0x3ba06c3f	0.0048957164
64	0xbd8eb772	-0.06968583
65	0x3c1b3861	0.009473891
66	0xbd5204ae	-0.051273994
67	0xbc10239e	-0.008797554
68	0x3c07aee5	0.008281444
69	0x3bfeddf3	0.0077779233
70	0x3c1522be	0.009102521
71	0x3c0980b2	0.0083925
72	0x3c0a8c29	0.008456268
73	0x3c09e780	0.00841701
74	0x3c0457f4	0.00807761
75	0x3c14521b	0.009052779
76	0xbcf16cbf	-0.0294708
77	0x3d3a0689	0.04541639
78	0x3d7a42cc	0.06109886
79	0xbe0acbab	-0.13554256
80	0x3d1a1b3f	0.03762364
81	0xbceeb3e3	-0.029138511
82	0x3d21c86b	0.039497774
83	0xbd4c315b	-0.049851757
84	0xbccff63c	-0.025385968
85	0xbd14c300	-0.03631878
86	0x3c08760c	0.008328926
87	0x3c105a0a	0.0088105295
88	0x3c06d1e1	0.00822875
89	0x3bfac579	0.007652935
90	0x3c157e33	0.0091243265
91	0x3c0b15ec	0.008489113
92	0x3bfa434c	0.007637417
93	0x3bff4d79	0.007791218
94	0xbd9b58d8	-0.07585305
95	0xbd763589	-0.06010965
96	0xbd023962	-0.031793006
97	0xbd941793	-0.07231059
98	0xbc984693	-0.01858834
99	0xbc99c8a5	-0.018772433
100	0xbc8ee3cf	-0.017442612
101	0x3c5d08bc	0.013490852
102	0xbda93b4e	-0.082632646
103	0xbc64ae57	-0.0139575815
104	0x3c0dfbeb	0.008666019
105	0x3c129513	0.008946675
106	0x3c15239e	0.00910273
107	0x3c095c66	0.008383846
108	0x3c006faf	0.007839127
109	0x3c090910	0.008363977
110	0x3c003e1a	0.007827306
111	0x3bf375ec	0.007429829
112	0xbdb993b9	-0.09061379
113	0xbc1f6ecb	-0.009731005
114	0x3b83c842	0.0040216753
115	0xbdaa9930	-0.083299994
116	0x3d13ae6e	0.03605502
117	0x3cc1b0da	0.0236439
118	0x39d701f9	0.00041009465
119	0xbc876fbc	-0.016532771
120	0xbce8bb14	-0.028409518
121	0xbdbd4e13	-0.09243407
122	0x3bf3172c	0.007418534
123	0x3c116945	0.008875196
124	0x3c0eaed9	0.008708679
125	0x3c091386	0.008366471
126	0x3c0660f0	0.008201823
127	0x3c1722b2	0.009224581
128	0x3bfd8be8	0.0077376254
129	0x3bf2df5e	0.0074118813
130	0xbcd2230f	-0.025651483
131	0xbdfa8d2d	-0.122339584
132	0xbd282490	-0.041050494
133	0xbd3f4f5d	-0.046706546
134	0x3d76dffe	0.06027221
135	0x3d4f4fd7	0.05061325
136	0x3d1d6f03	0.038435947
137	0xbd821949	-0.06352479
138	0xbd2e4e52	-0.04255516
139	0xbcdbd1d0	-0.026833445
140	0x3c1389de	0.009005038
141	0x3c148e58	0.0090671405
142	0x3c0d1734	0.008611489
143	0x3c08aeaf	0.008342429
144	0x3bf81f95	0.0075721242
145	0x3c011e6a	0.007880786
146	0x3c17068e	0.009217871
147	0x3c0e0681	0.008668543
148	0x3d3f0037	0.046631064
149	0xbda65810	-0.08122265
150	0xbc6c476d	-0.014421326
151	0x3c6e5189	0.014545807
152	0xbc9f7e55	-0.01946942
153	0x3d068cb3	0.032849025
154	0x3d9c46f3	0.0763072
155	0xbd1b6576	-0.037938558
156	0xbc55b491	-0.013043539
157	0xbd1a0630	-0.037603557
158	0x3bf447cf	0.0074548493
159	0x3c01eaae	0.007929487
160	0x3bf3ad58	0.0074364357
161	0x3c0d61d1	0.008629278
162	0x3c106252	0.008812504
163	0x3c18572c	0.009298127
164	0x3c111523	0.008855137
165	0x3c007f6d	0.007842881
166	0xbd622d7e	-0.055219166
167	0xbd308578	-0.043096036
168	0xbd08896e	-0.03333419
169	0xbb71a4c7	-0.0036871897
170	0x3d45e807	0.04831698
171	0x3cbe2470	0.023210734
172	0x3cd211af	0.025643198
173	0x3d03ab80	0.032145977
174	0xbd4ef7ba	-0.05052922
175	0xbd1e1645	-0.038595457
176	0x3c0c9d21	0.008582384
177	0x3c08fc6d	0.008360964
178	0x3c15aa53	0.009134847
179	0x3c183a3d	0.009291229
180	0x3c136843	0.008997026
181	0x3c0a4e38	0.0084415
182	0x3bf3b13a	0.0074368985
183	0x3c14e7ac	0.009088438
184	0xbc23f911	-0.0100081125
185	0xbd95d1d4	-0.07315412
186	0xbcaab1ef	-0.020836798
187	0x3ce164c6	0.027513873
188	0xbbf3aa11	-0.007436045
189	0x3d358c88	0.044323474
190	0x3d372e85	0.0447221
191	0xbc8d771a	-0.017268706
192	0xba94846a	-0.0011330966
193	0x3b5abb44	0.003337578
194	0x3c02a0f7	0.007972947
195	0x3c01b3da	0.007916415
196	0x3bfb8873	0.007676178
197	0x3c14b1c4	0.009075586
198	0x3c1686e8	0.009187438
199	0x3bf41a5f	0.0074494327
200	0x3c1544b1	0.009110616
201	0x3c17176e	0.009221895
202	0xbd08916a	-0.033341803
203	0xbc96ea69	-0.018422322
204	0x3cce7cf0	0.02520606
205	0x3d6ed0da	0.058304645
206	0x3c3b49d4	0.011431176
207	0x3cec9c69	0.028883176
208	0x3d38490d	0.04499154
209	0x3b08e662	0.0020889272
210	0x3c52310c	0.0128290765
211	0x3c92d06c	0.017921649
212	0x3c138617	0.0090041375
213	0x3c0f0786	0.008729821
214	0x3c089a7c	0.008337613
215	0x3c180c54	0.009280283
216	0x3c04b927	0.008100784
217	0x3c121ef8	0.008918516
218	0x3bf957d4	0.007609347
219	0x3c11eb6b	0.008906226
220	0xbc6c88c2	-0.0144369025
221	0x3c9c92ed	0.019113028
222	0x3ccfad9c	0.025351338
223	0x3c208354	0.009796936
224	0xbda8ddda	-0.0824544
225	0x3c42cad8	0.011889182
226	0x3d92738e	0.071509466
227	0xbc11bcb9	-0.008895093
228	0x3bc0cb24	0.0058835912
229	0xbcfdd4ed	-0.03098532
230	0x3c0b3437	0.008496336
231	0x3c01a297	0.0079123
232	0x3c0dc6f7	0.008653394
233	0x3c008011	0.007843033
234	0x3c072915	0.008249541
235	0x3c0adb5b	0.00847515
236	0x3c16cc3a	0.009203965
237	0x3bfb04f0	0.0076605007
238	0x3d17c9e0	0.037057757
239	0x3d553f44	0.052062288
240	0x3d6502be	0.05591082
241	0x3dc6c5f2	0.09705724
242	0x3cb18573	0.021670079
243	0xbc6ae0a6	-0.014335787
244	0x3d91f626	0.07127027
245	0x3d68c7e2	0.056831248
246	0x3d038fd0	0.032119572
247	0x3c411f8c	0.0117873065
248	0x3c086318	0.008324407
249	0x3c008752	0.007844763
250	0x3c0f5b4a	0.008749792
251	0x3c04fef5	0.008117427
252	0x3c051f26	0.008125102
253	0x3bfa3625	0.007635849
254	0x3c0ea9a7	0.00870744
255	0x3c0c1dd2	0.008552032

layer1.bias f4 [128]
0	0x3c045bc3	0.008078518
1	0x3be00461	0.0068364595
2	0xbcf70da0	-0.030157864
3	0x3b88c2e1	0.004173622
4	0xbbb9077a	-0.005646643
5	0xbaaf567b	-0.0013377214
6	0xba5a4886	-0.0008326847
7	0xbb4016fd	-0.0029310577
8	0xbb277b3f	-0.0025555638
9	0xbbacc2b5	-0.0052722343
10	0x3ac8a629	0.0015308309
11	0xbae0ef39	-0.0017161138
12	0x3d2f6492	0.04282052
13	0x3c6ebd09	0.014571437
14	0x3a24c4ca	0.00062854274
15	0xba49500b	-0.0007679469
16	0x3a316154	0.0006766517
17	0x3b13e88f	0.0022569036
18	0xbadce0e1	-0.0016851687
19	0x3bc1c5ea	0.005913486
20	0x3cdd6da1	0.027029814
21	0xbc5c76e8	-0.013456084
22	0xbbacbf6d	-0.005271843
23	0xbbea151b	-0.0071436292
24	0xba926a9c	-0.0011170688
25	0x3ab06f76	0.0013460952
26	0xba96591d	-0.001147065
27	0xbb8fcbfe	-0.0043883314
28	0xbb18107e	-0.002320319
29	0x3ad7c922	0.001646314
30	0xbb8a47f3	-0.004220003
31	0xbb6a88a8	-0.003578702
32	0xb921a107	-0.00015414144
33	0x3dc565ce	0.09638558
34	0xbc68b87e	-0.014204143
35	0xbae477c1	-0.0017430709
36	0xbbcfbae9	-0.00633942
37	0xbc791f9a	-0.015205288
38	0xba604d62	-0.0008556453
39	0xbb2611df	-0.0025340242
40	0xbbf09ffb	-0.00734329
41	0xbc664300	-0.01405406
42	0x3c68ecd1	0.014216618
43	0xbae2cef2	-0.0017304106
44	0xbc415b17	-0.011801503
45	0x3beb5cfa	0.0071827145
46	0xbaa87232	-0.0012851416
47	0xbaf615a7	-0.0018774763
48	0x3a1f93b0	0.0006087376
49	0x3c958b18	0.018254802
50	0xbbbe6693	-0.0058105676
51	0xba39b071	-0.0007083482
52	0x3b2bdaa4	0.002622285
53	0xbae82bef	-0.0017713289
54	0xba86ad6f	-0.0010275076
55	0x3b5e51ee	0.0033923346
56	0xbb27a102	-0.0025578146
57	0x3ba1e95f	0.00494115
58	0x3cc23e1c	0.023711257
59	0x3b1e261b	0.00241316
60	0xbba6e7d6	-0.005093555
61	0xb877d1da	-5.908483e-05
62	0xbb144c55	-0.0022628505
63	0xbb761bb5	-0.0037553136
64	0xbb2ff331	-0.0026847834
65	0xbaaa6167	-0.0012998999
66	0xba9b68c7	-0.0011856788
67	0xbace38b9	-0.0015733457
68	0xbb580f25	-0.0032968011
69	0xba814505	-0.0009862488
70	0x3bfdf851	0.007750549
71	0xbbb76c8a	-0.0055976557
72	0x3c068d6c	0.008212429
73	0xbb708921	-0.003670283
74	0x3c3668fe	0.0111334305
75	0x3ca02c3d	0.019552344
76	0x3b15173a	0.002274944
77	0xbc691ed6	-0.014228543
78	0xba14a6ff	-0.00056706363
79	0xba9bb90b	-0.0011880709
80	0xbb0b07e3	-0.0021214418
81	0xbab35ce0	-0.0013684295
82	0xba299ee1	-0.0006470513
83	0x3a983766	0.001161319
84	0x3cd55112	0.026039634
85	0x3c93407b	0.017975083
86	0x3b504281	0.003177792
87	0xba8a5189	-0.0010552864
88	0x3b9cde29	0.0047872257
89	0x3ae7d747	0.0017688059
90	0xbb17bb34	-0.0023152353
91	0x395e4bac	0.0002119976
92	0xbb2bf462	-0.0026238193
93	0xbb95decf	-0.00457368
94	0xbb7ba725	-0.0038399186
95	0xbbd92b51	-0.006627478
96	0xbbc035a7	-0.005865771
97	0xbb6593ad	-0.0035030649
98	0x3c6c2403	0.014412883
99	0xbaebeb5f	-0.0017999223
100	0xbc32a7e5	-0.010904287
101	0x3bafedf3	0.005368942
102	0xbb9d347b	-0.004797516
103	0x3b86560c	0.004099613
104	0xbb7e1732	-0.003877115
105	0x3b472dd3	0.0030392304
106	0xba37d089	-0.000701197
107	0xbb8fd1bb	-0.0043890155
108	0x3b72cd1b	0.0037048522
109	0xbb6cf0f9	-0.0036154373
110	0x3ac02471	0.0014659298
111	0xbc2558ec	-0.010092001
112	0xbc0bb4fe	-0.008527039
113	0xbc6de442	-0.014519753
114	0xbba8dd6d	-0.005153349
115	0xbb220bb0	-0.0024726205
116	0xbbc09676	-0.0058773113
117	0xbb9f6db2	-0.0048653716
118	0xbb769f21	-0.003763147
119	0xbb6bf2ad	-0.00360028
120	0x3a90c187	0.0011044004
121	0xbad0b844	-0.0015924056
122	0xba8ed756	-0.0010897915
123	0xbaef4f25	-0.001825784
124	0xbc8574f6	-0.016291123
125	0xbaed198d	-0.001808928
126	0xbb4e2acf	-0.0031458621
127	0x3af3b1db	0.0018592434

layer2.weight f4 [128, 128]
0	0xbd5b1564	-0.053487197
1	0xbc39fc1a	-0.01135161
2	0x3c40acdf	0.011759966
3	0x3dabd171	0.08389557
4	0x3b4fa278	0.0031682532
5	0xbe8b8f55	-0.2725779
6	0x3c484b39	0.012224966
7	0x3a338e5d	0.0006849522
8	0xbaa6dc43	-0.0012730438
9	0xbd5bfef3	-0.053709935
10	0x3c9f394f	0.019436507
11	0xbb8c05b6	-0.0042731417
12	0x3d3cf286	0.046129726
13	0x3c8802f8	0.016602978
14	0x3d1954d5	0.037434418
15	0xbc1a1fc5	-0.0094069885
16	0x3decc301	0.115606315
17	0x3da2828c	0.07935056
18	0x3d470016	0.048584066
19	0x3d82ccb5	0.06386701
20	0x3c816217	0.015793843
21	0xbd616725	-0.055030007
22	0xbc0472ac	-0.0080839805
23	0xbe17d11c	-0.14825863
24	0xbd1ca079	-0.038238976
25	0xbe075aeb	-0.13218276
26	0xbcba0a89	-0.022710102
27	0xbda7c285	-0.081913985
28	0x3d100b50	0.03516704
29	0xbcc6397d	-0.024197334
30	0xbd027c1f	-0.031856652
31	0xbb321b8d	-0.0027177066
32	0xbda05a53	-0.07829728
33	0x3b46a615	0.0030311395
34	0xbdb53525	-0.08848027
35	0x3c49bf0e	0.012313617
36	0x3d948198	0.072512805
37	0x3d3e4df9	0.04646108
38	0xbbc825d0	-0.006108023
39	0x3d944a0a	0.07240684
40	0x3dc366dd	0.09541104
41	0xbe068659	-0.13137187
42	0x3bd36868	0.006451655
43	0x3d6bb90d	0.057549525
44	0x3c7bd628	0.015370883
45	0xbe16e5ec	-0.14736146
46	0x3baec113	0.005333075
47	0x3d8b9bd9	0.06816835
48	0xbb197760	-0.00234171
49	0xbcae807f	-0.021301506
50	0x3dabeb4c	0.08394489
51	0x3b8a51d6	0.0042211814
52	0xbcbaf045	-0.022819648
53	0x3b7043fc	0.0036661616
54	0xbd2aeb0c	-0.041728064
55	0xbe454ba8	-0.19267142
56	0x3b45dda1	0.0030191916
57	0xbeb6e0ca	-0.35718375
58	0x3cdd0e2e	0.0269843
59	0xbc1e5c58	-0.009665571
60	0x3c13b6bd	0.009015736
61	0x39f00ee5	0.00045787464
62	0x3c81b728	0.015834406
63	0xbd472a3a	-0.048624255
64	0xbe636005	-0.22204597
65	0x3d10d97e	0.035363667
66	0x38eec075	0.00011384572
67	0x3d99ce2c	0.07510027
68	0x3ba7e9d9	0.0051243124
69	0x3ba1609a	0.004924846
70	0xbd1ab080	-0.03776598
71	0xbd54506d	-0.051834513
72	0x3ca453d2	0.0200595
73	0x3b481755	0.0030531485
74	0x3d4ec89a	0.050484277
75	0xbd8f1930	-0.06987226
76	0xbde376e6	-0.111066625
77	0xbd70b88e	-0.058769755
78	0x3c9c27f7	0.019062025
79	0x3b45b938	0.0030170213
80	0x3c25d99c	0.010122683
81	0xbbfe1680	-0.007754147
82	0x3e05e606	0.13076028
83	0xbd4c6b61	-0.049907092
84	0xbbf38d28	-0.0074325986
85	0xbdba9612	-0.09110655
86	0x3c43567b	0.011922474
87	0x3c44359d	0.011975673
88	0x3d20820a	0.039186515
89	0xbebe1f3d	-0.37133208
90	0x3d4d6a6b	0.050150316
91	0xba663494	-0.00087816385
92	0x3c125bd7	0.008933029
93	0xbde7eb8e	-0.11324225
94	0xbd1a1af6	-0.03762337
95	0xbd8e3b86	-0.06944947
96	0xbd6ce5d8	-0.057836384
97	0x3e53bf4d	0.20678444
98	0x3d073435	0.033008773
99	0xbc8c1a6d	-0.017102445
100	0x3cdb8123	0.026794976
101	0xbcab87e7	-0.020938827
102	0x3e09ecb4	0.13469201
103	0xbde04ee4	-0.10952547
104	0x3e14e3cf	0.14540027
105	0x3db280b4	0.087159544
106	0x3b884a38	0.004159238
107	0x3d14e00b	0.036346477
108	0xbd462e2e	-0.048383884
109	0x3d13ca22	0.03608144
110	0xbd858943	-0.06520321
111	0xbd08e785	-0.03342392
112	0xbdb4d6f0	-0.088300586
113	0x3d5223eb	0.051303785
114	0xbd67ea12	-0.05661971
115	0x3b2782c2	0.0025560115
116	0x3c2a4411	0.010392205
117	0xbbea50e3	-0.0071507557
118	0xbd91f3b8	-0.07126564
119	0x3c1b276f	0.009469851
120	0x3c9f0fe4	0.019416757
121	0xbcb8e1e1	-0.022568645
122	0xbaa7055c	-0.0012742686
123	0x3b98ff58	0.004669111
124	0xbdb22775	-0.08698932
125	0xba218a75	-0.00061622943
126	0x3d9d94c5	0.07694391
127	0xbbdfb0df	-0.0068265046
128	0xbc1f7099	-0.009731435
129	0xbc43180b	-0.011907588
130	0x3aa32abc	0.0012448649
131	0xbb531054	-0.0032205777
132	0x3bbdba5d	0.0057900385
133	0xbc36a6f3	-0.011148202
134	0x3c2381bd	0.0099796625
135	0x39554d62	0.0002034209
136	0xb9c4f34e	-0.0003756531
137	0x3b0af595	0.0021203507
138	0xbacd81ca	-0.0015678939
139	0x388d636b	6.741922e-05
140	0xbc08b103	-0.008342984
141	0xbccaa133	-0.024735069
142	0x3a453022	0.0007522126
143	0x3ac99c61	0.0015381688
144	0x3b8fbf17	0.0043867934
145	0xbb6fa9c1	-0.0036569687
146	0x3b6079f7	0.0034252384
147	0xbb15d6af	-0.0022863557
148	0xbbbaa0dc	-0.0056954455
149	0xbb565983	-0.0032707162
150	0x3ab6609c	0.001391429
151	0xbb6b652d	-0.003591846
152	0xbc032d08	-0.008006342
153	0xbadcd864	-0.0016849157
154	0x3ad0ffa5	0.0015945329
155	0x3b19603e	0.0023403312
156	0xb722ab88	-9.69589e-06
157	0x3bd3741a	0.0064530494
158	0xbba5f5a6	-0.005064684
159	0x3973d2c8	0.00023252808
160	0xbc16a7a0	-0.009195238
161	0xbaab9470	-0.0013090502
162	0x37a645be	1.9821218e-05
163	0x3bad4dfb	0.005288837
164	0x3be5db4f	0.007014669
165	0xbc826e16	-0.015921634
166	0x3b19c52f	0.0023463478
167	0xbbc20676	-0.0059211804
168	0xbb07138b	-0.0020611014
169	0x3b8c97ab	0.004290541
170	0x3a7b47f2	0.0009585611
171	0xbaedcef7	-0.0018143345
172	0xbb08a26b	-0.0020848762
173	0xba5c2c39	-0.00083989237
174	0x3aca06c6	0.0015413396
175	0x39a6eb09	0.00031837102
176	0x3ae4993a	0.0017440685
177	0xbb127eea	-0.0022353479
178	0x3c9d21ef	0.01918122
179	0x3b5b11d4	0.0033427374
180	0x3b105f76	0.0022029555
181	0x3a955a80	0.0011394769
182	0x39808920	0.0002451623
183	0xbc828815	-0.01593403
184	0x3b249208	0.0025111455
185	0x3b2587a8	0.002525786
186	0xbc7383fa	-0.014863009
187	0xbbd6d890	-0.006556578
188	0x3bbbbd53	0.0057293563
189	0x3b2449bb	0.002506836
190	0x3b10cbf4	0.0022094222
191	0xbb06dce2	-0.0020578434
192	0xbc83eafb	-0.016103258
193	0x3ab4ea8d	0.0013802812
194	0x3b895184	0.0041906256
195	0xbb214c18	-0.0024612006
196	0x3be61175	0.007021124
197	0x3bb3c41d	0.005486025
198	0xbb490f1f	-0.003067918
199	0xbbed81b3	-0.0072481274
200	0xb91025cc	-0.0001374699
201	0x3b7b6bb2	0.0038363752
202	0xbc4b714c	-0.012417149
203	0x3b583c84	0.0032995054
204	0xb91f87b8	-0.00015213981
205	0xbb82da20	-0.0039932877
206	0x3bae4b7b	0.0053190566
207	0x3abcc74d	0.0014402658
208	0x3b91bfde	0.004447921
209	0x3b8e8263	0.0043490394
210	0xb970e941	-0.00022975077
211	0xbc16364f	-0.009168222
212	0xbb9a3743	-0.0047062947
213	0xba8303f9	-0.0009995691
214	0x3b935b6d	0.004496983
215	0x3b9aeec8	0.004728172
216	0xbb4ad62c	-0.003095041
217	0xbc22fafa	-0.009947533
218	0xbc1759ab	-0.009237687
219	0x3936ba79	0.00017426339
220	0x3bab6149	0.005230103
221	0xbca4d2dd	-0.020120079
222	0x3c42b175	0.011883129
223	0xbb6a44bc	-0.0035746535
224	0x3b914729	0.004433532
225	0x3c07ac7b	0.008280869
226	0xbb6972ef	-0.0035621484
227	0x3c09174c	0.008367371
228	0xbc38ed59	-0.011287057
229	0xbc6d57a5	-0.014486228
230	0x3c29c20b	0.010361205
231	0x3916ec22	0.00014393081
232	0xb971a5bc	-0.00023045292
233	0xbb71aa83	-0.0036875315
234	0x3b1c91a0	0.002389051
235	0xbaccd56c	-0.001562757
236	0x3c180c99	0.009280347
237	0x3a3ef13a	0.00072838704
238	0x3c05b630	0.008161113
239	0x3a53ee4e	0.00080845214
240	0x3b1db1cf	0.002406228
241	0x3bb544ef	0.005531899
242	0xbc60c3bb	-0.013718541
243	0x3acb8ddc	0.0015529948
244	0xb9f53a63	-0.00046773543
245	0x3afade93	0.0019139819
246	0x3ababbd3	0.001424665
247	0x3adf4888	0.0017035166
248	0x3af5fadc	0.0018766779
249	0xbc81fe64	-0.015868373
250	0x3b86f133	0.0041181087
251	0x3b3405fd	0.002746939
252	0xbc005bd8	-0.007834397
253	0x39b0bb57	0.00033708915
254	0x3a118742	0.0005551466
255	0xbbca8617	-0.0061805355

layer2.bias f4 [128]
0	0x3b75d2bd	0.0037509643
1	0xb80a8be7	-3.3032058e-05
2	0x3d1a6cdc	0.037701473
3	0xbc29b1a2	-0.010357292
4	0x3dfaa5f5	0.12238685
5	0xbc15a2a8	-0.009133019
6	0xbd9c3f5e	-0.07629274
7	0xbd208cd1	-0.039196793
8	0x3d0ab7cd	0.033866692
9	0xbc5e78d2	-0.0135786105
10	0x3df0f51f	0.11765503
11	0xbcea1cd0	-0.028578192
12	0x3de3aba3	0.111167215
13	0xbd94e5a1	-0.07270361
14	0xbb907f2c	-0.0044096913
15	0xbd523a32	-0.05132503
16	0x3d183a71	0.03716511
17	0xbd47f377	-0.04881617
18	0x3d36f4f1	0.044667188
19	0x3c4f928d	0.012669218
20	0xbd29faf9	-0.04149911
21	0xbc98dfcc	-0.018661402
22	0x3de5fd08	0.112299025
23	0x3cb0dc2d	0.021589363
24	0x3cb936fb	0.022609225
25	0x39c113f4	0.00036826695
26	0x3e0c5f6a	0.13708273
27	0x3d792e84	0.060835376
28	0x39d1fb53	0.00040050838
29	0xbd2bbef8	-0.04193017
30	0xbcc9a16d	-0.024613107
31	0xbd3630d0	-0.044480145
32	0x3d75ce9e	0.0600115
33	0xbc55daec	-0.013052683
34	0xbd5e97c6	-0.05434396
35	0x3e3fdaeb	0.18735854
36	0xbd8cf929	-0.06883461
37	0x3b8b6bc3	0.0042547896
38	0x3e14bcef	0.14525197
39	0xbbd5cc77	-0.0065246182
40	0x3dc68439	0.09693188
41	0xbd356daf	-0.044294056
42	0xbc69baf2	-0.014265763
43	0xbd099040	-0.033584833
44	0xbd71b0c8	-0.059006482
45	0xb843aee9	-4.665452e-05
46	0xbc9b1403	-0.01893044
47	0xbcb504bf	-0.02209699
48	0x3da627e6	0.08113079
49	0x3de2ec89	0.11080272
50	0x3df57169	0.11984522
51	0xbcfc3f9d	-0.030792052
52	0x3dc833a4	0.09775475
53	0xbce5b99d	-0.028042609
54	0xbd9c77ec	-0.07640061
55	0x3dcc450b	0.099741064
56	0xbd53c20e	-0.051698737
57	0x3da42d85	0.08016495
58	0x3d1f55ea	0.038900293
59	0xbd0d27ab	-0.03446166
60	0x3d419517	0.047261324
61	0x3dd49445	0.10379843
62	0x3b78b317	0.0037948543
63	0x3c6b6ed7	0.014369688
64	0xbb9989a9	-0.0046856
65	0xbb974698	-0.0046165697
66	0x3dd9cc33	0.10634651
67	0x3dce0370	0.100592494
68	0xbc5dea77	-0.01354467
69	0x3b313693	0.0027040585
70	0x3e8da7da	0.27667123
71	0xbc825603	-0.015910154
72	0x3cb3de0c	0.021956466
73	0x3d720357	0.059085216
74	0x3c4fb813	0.012678164
75	0xba88e81e	-0.0010445153
76	0x3de2c717	0.110731296
77	0xbb718015	-0.0036850024
78	0x3e0ad3ef	0.13557409
79	0x3c6e8ac8	0.014559455
80	0x3e11851d	0.14210935
81	0xbd26b3aa	-0.040698685
82	0x3dcb4776	0.099257395
83	0x3cfc0906	0.030766021
84	0xbd840a6f	-0.064473026
85	0x3b84a592	0.004048058
86	0x3dda3d54	0.10656229
87	0xbd1dee2f	-0.038557228
88	0xbb97bd92	-0.004630753
89	0xbd57d698	-0.052694887
90	0xbd232834	-0.039833263
91	0x3dcccb1b	0.09999677
92	0x3dd64c89	0.10463817
93	0xbb0eba1c	-0.002177841
94	0xbd18cc91	-0.037304465
95	0x3e089098	0.13336408
96	0xbb900ac6	-0.0043958155
97	0xb9bde693	-0.0003622068
98	0x3e054b96	0.13017115
99	0xbb830d85	-0.0039994144
100	0x3db6719a	0.089083865
101	0x3dc8a99e	0.09797977
102	0x38c08e62	9.181794e-05
103	0xbd63ce9f	-0.05561697
104	0x3b9ffd53	0.0048824935
105	0xbc4bae96	-0.012431761
106	0x3deabcf5	0.11461822
107	0x3d4da395	0.050204832
108	0xbc4603a8	-0.012085833
109	0x3dab0093	0.08349719
110	0xbd4618bd	-0.048363436
111	0x3c99b2cd	0.018762017
112	0x3cfb30ba	0.030662883
113	0xbccae6df	-0.024768291
114	0x3b63164f	0.0034650748
115	0x3dc23d0d	0.09484301
116	0xbd2fc11d	-0.042908777
117	0xbb3281af	-0.0027237942
118	0x3db3498c	0.08754262
119	0xbbbac50a	-0.0056997584
120	0x3e5c626d	0.21521921
121	0x3d9078c9	0.07054288
122	0x3de2313b	0.11044546
123	0x3e2fe05c	0.1717543
124	0x3de877bb	0.11350962
125	0x3d6a9938	0.057275027
126	0x3e062058	0.13098276
127	0xbd988496	-0.07447164

layer3.weight f4 [8, 128]
0	0x3ed0c18d	0.40772668
1	0x3c048efb	0.00809073
2	0x3dc04176	0.09387486
3	0x3e297b6c	0.16550988
4	0x3d8fd44d	0.07022915
5	0x3b883984	0.004157247
6	0xbdbd8e89	-0.09255702
7	0xbd9d0bf0	-0.076682925
8	0xbe06e18d	-0.13171978
9	0x3e3d42da	0.18482533
10	0x3d3cf5e0	0.046132922
11	0xbf2d360c	-0.67660594
12	0x3d81013e	0.06299065
13	0xbe005ca0	-0.12535334
14	0x3f0fe0cf	0.56202406
15	0xbebe81a5	-0.37208286
16	0x3e3008fe	0.1719093
17	0x3c96eb29	0.01842268
18	0x3d9c7d06	0.07641034
19	0x3c8d6da5	0.017264197
20	0xbd5365f2	-0.051610895
21	0x3e9bc2d8	0.3042209
22	0x3d9a4727	0.075331025
23	0x3d1b8e17	0.037977304
24	0x3dcc409e	0.09973262
25	0xbe840059	-0.25781515
26	0x3d677252	0.05650551
27	0x3d230300	0.039797783
28	0x3e554396	0.20826563
29	0xbdab26c2	-0.08357002
30	0x3e5d93a1	0.21638347
31	0xbd51c654	-0.05121453
32	0x3d6d45bb	0.05792783
33	0xbe7497e8	-0.23886073
34	0xbe5cd430	-0.21565318
35	0x3e0ae9da	0.1356577
36	0xbc2e1b81	-0.010626675
37	0x3d8bbbb3	0.0682291
38	0x3d2bc9d1	0.041940514
39	0x3f713167	0.94216007
40	0x3dab98c3	0.08378746
41	0xbdc9437e	-0.09827326
42	0x3e9309b4	0.2871834
43	0xbd937deb	-0.07201751
44	0xbda1d687	-0.07902246
45	0x3f3fae4b	0.74875325
46	0x3c3179b9	0.010832244
47	0x3ba2646d	0.0049558193
48	0x3d020cb0	0.03175038
49	0x3df5b383	0.1199713
50	0x3d6c04c7	0.057621744
51	0xbdbd6697	-0.09248083
52	0x3ca0d9a7	0.019635035
53	0x3cae6f6f	0.02129337
54	0xbd35eb13	-0.044413637
55	0x3da810c4	0.08206323
56	0xbda12ca8	-0.07869846
57	0x3d8883a8	0.066657364
58	0x3dc5ee98	0.09664649
59	0xbe161959	-0.14658107
60	0x3df4f81a	0.11961384
61	0x3d4a2b66	0.049357794
62	0x3d5f03de	0.054447047
63	0xbd0beb92	-0.034160204
64	0xbe6170ca	-0.22015682
65	0x3eac74ed	0.33682957
66	0x3da1fb85	0.07909302
67	0x3d9fb544	0.077982455
68	0xba721b06	-0.0009235594
69	0x3da83d69	0.08214838
70	0x3e0c02de	0.13672969
71	0xbcdce5dd	-0.026965076
72	0x3db81edb	0.0899026
73	0x3e003403	0.12519841
74	0xbe59f272	-0.21283892
75	0x3f2f4e75	0.6847909
76	0x3db4ae61	0.08822323
77	0x3f5a2d32	0.8522521
78	0x3d99284e	0.07478391
79	0xbf233c61	-0.63764006
80	0x3e21ad84	0.15788847
81	0xbf62cd09	-0.8859411
82	0x3dac2d95	0.084071316
83	0x3dada1c0	0.08478117
84	0xbdb4c9ee	-0.088275775
85	0x3d61347f	0.054981705
86	0x3db19ad5	0.0867211
87	0xbd8d7e36	-0.069088385
88	0xbe2a4545	-0.16627987
89	0xbc812700	-0.015765667
90	0x3da22ce2	0.07918717
91	0x3dc6a7c1	0.09699965
92	0x3df743d6	0.120734856
93	0x3efd78ff	0.49506375
94	0xbd1276c8	-0.03575781
95	0x3d9e2fbc	0.07723948
96	0x3e5c2f3d	0.21502395
97	0x3d4b4866	0.04962959
98	0x3d45f09d	0.04832517
99	0x3d383948	0.044976503
100	0x3de267e7	0.11054974
101	0x3d90368b	0.07041653
102	0x3ed48f6b	0.4151567
103	0x3cedbb5e	0.029020008
104	0xbe4fd891	-0.20297457
105	0x3df01af4	0.11723891
106	0x3d18a7b0	0.037269294
107	0x3d8c2b2b	0.06844171
108	0x3ec6ff61	0.38866714
109	0x3da1b46c	0.07895741
110	0xbd250a30	-0.04029292
111	0x3d567e0d	0.052366305
112	0x3de61ec8	0.1123634
113	0x3d09e6b9	0.0336673
114	0x3dfe0d8d	0.12404928
115	0x3d577eda	0.05261121
116	0xbd6b4b8f	-0.057445105
117	0x3bb2725d	0.005445762
118	0x3e0f511d	0.13995786
119	0x3f4714c4	0.7776606
120	0x3dd82641	0.10554171
121	0x3e30afda	0.17254582
122	0x3d809f3f	0.06280374
123	0x3da73c5b	0.08165809
124	0x3d70d392	0.05879552
125	0x3d2cf8d3	0.042229485
126	0x3d2f2b1b	0.042765718
127	0xbdc5852f	-0.096445434
128	0x3be1d8bd	0.0068922923
129	0x3b7fd51c	0.0039036935
130	0x3d3e703d	0.046493758
131	0x3e5c905f	0.21539448
132	0x3d7985b5	0.06091853
133	0xbe9db844	-0.30804646
134	0x3cbc209b	0.022964766
135	0xbd2d2274	-0.042269185
136	0x3d7ec68b	0.062201064
137	0x3ebdd117	0.37073585
138	0x3d96e950	0.073687196
139	0xbd51a4f3	-0.0511827
140	0x3d9ca384	0.07648376
141	0xbd1e6952	-0.03867466
142	0x3f26ad04	0.6510775
143	0xbfa9ec93	-1.3275322
144	0x3e25028c	0.16114253
145	0xbef2a4a7	-0.47391245
146	0x3db330b3	0.08749523
147	0x3d0dbd35	0.03460427
148	0xbcedbf18	-0.029021785
149	0x3e06d787	0.13168155
150	0x3d930461	0.071785696
151	0x3cce29fb	0.025166502
152	0x3df8fc59	0.121575065
153	0x3f9a9343	1.2076191
154	0x3d74ee38	0.059797496
155	0x3d8e63fb	0.069526635
156	0x3e20861a	0.15676156
157	0xbdb2244a	-0.08698328
158	0x3e8a024b	0.26954874
159	0xbd916265	-0.070988454
160	0x3d9eb76b	0.07749828
161	0xbe91e7f8	-0.2849729
162	0xbd883d5d	-0.06652329
163	0x3d35c8f1	0.044381086
164	0x3cbf6090	0.023361474
165	0x3e40724e	0.18793604
166	0x3d559805	0.05214693
167	0x3f1c63f9	0.61090046
168	0x3dc80e32	0.097683325
169	0x3b9529ce	0.0045521026
170	0x3e60b944	0.21945673
171	0xbde75838	-0.11296123
172	0xbdb1a10d	-0.08673296
173	0x3d85df6a	0.065367535
174	0x3c985e85	0.018599758
175	0xbbcb3477	-0.0062013227
176	0x3e0224a5	0.12709291
177	0x3da320cf	0.07965242
178	0x3d81fb04	0.063467056
179	0xbe177407	-0.14790355
180	0x3db2f163	0.08737447
181	0xbd8415b4	-0.06449452
182	0xbd3d2886	-0.046181224
183	0x3e17754b	0.14790837
184	0xbdd9a086	-0.106263205
185	0x3d6486bc	0.055792555
186	0x3e0e0886	0.13870439
187	0xbe278d34	-0.16362458
188	0x3e14cbb8	0.14530838
189	0x3d875e16	0.06609742
190	0x3dec8e4a	0.11550577
191	0xbeba7ce3	-0.36423406
192	0x3ee5e628	0.44902158
193	0x3dec89cc	0.1154972
194	0x3d5ffddb	0.054685455
195	0x3d9da2e2	0.07697083
196	0xbd1322c4	-0.035921827
197	0x3de74c3b	0.11293837
198	0x3e189e17	0.14904056
199	0xbe0af379	-0.1356944
200	0x3def679f	0.11689686
201	0x3e2b4267	0.16724549
202	0x3e32ca5e	0.1746001
203	0x3f344609	0.70419365
204	0x3d8bed8b	0.06832417
205	0x3f645ef4	0.89207387
206	0x3d47c2ca	0.04876975
207	0xbd367c94	-0.0445524
208	0x3e147aa5	0.1449991
209	0xbfab58bb	-1.3386453
210	0x3dd7e2c2	0.105412975
211	0x3d0f230f	0.034945544
212	0xbd7f6548	-0.06235245
213	0x3ddec671	0.108776934
214	0x3d2a88de	0.041634433
215	0xbd9b54cb	-0.07584532
216	0xbddb7d9d	-0.10717318
217	0xbdbeda01	-0.09318925
218	0xbdc7944c	-0.09745082
219	0x3da38bbd	0.07985637
220	0x3dc5d2f5	0.096593775
221	0x3f1f336d	0.62187845
222	0xbd53e215	-0.05172928
223	0x3d249c50	0.040188134
224	0x3f02f34d	0.511525
225	0x3d876827	0.06611662
226	0x3d8235c8	0.06357914
227	0x3dc00719	0.09376354
228	0x3dfdca14	0.12392059
229	0x3d69df6e	0.057097845
230	0x3e4cc8b4	0.19998437
231	0x3cc28859	0.023746656
232	0xbd7a3580	-0.061086178
233	0x3f0a2750	0.53966236
234	0x3d9d3733	0.07676544
235	0x3da468a9	0.08027775
236	0xbed046d9	-0.40679052
237	0x3da68fb6	0.081328794
238	0xbcdbb77f	-0.026820896
239	0x3d93e992	0.072222844
240	0x3e23f753	0.16012315
241	0xbdd69203	-0.10477068
242	0x3e1d5a69	0.1536652
243	0x3d47e33a	0.048800685
244	0xbcd89b4a	-0.026441235
245	0x3be479e5	0.006972539
246	0x3df2b89f	0.1185162
247	0x3ee724ba	0.45145208
248	0x3e12720b	0.14301316
249	0x3de7731d	0.11301253
250	0x3d582061	0.052765254
251	0x3d948043	0.072510265
252	0x3d9120c0	0.07086325
253	0x3d22cc94	0.039745882
254	0x3d7403d2	0.059573956
255	0xbd36a851	-0.044594113

layer3.bias f4 [8]
0	0x3dcde77d	0.100539185
1	0x3d865c7e	0.0656061
2	0x3d95a20c	0.073062986
3	0x3d606bf5	0.054790456
4	0x3d3d1993	0.046166968
5	0x3e3fa352	0.18714646
6	0x3cf0d0ec	0.029396497
7	0x3d93e7ef	0.07221972
