DQN-seed200-64000CumEps.pth (torch, 556904 bytes, 6 tensors)

layer1.weight f4 [128, 944]
00000000: 3ff1 ad3a 0f8a ab3a 1575 a93a 5405 ad3a
00000010: 0fc1 d237 b1a3 cab6 ed9b 69b7 d626 58b6
00000020: 90f2 78bd 71da 1d3d 2702 7e3d cae6 b0b7
00000030: b3a8 3b35 a1f1 83b7 7daf ab3a 1bd6 aa3a
00000040: a707 ab3a 3f7f aa3a 1da0 aa3a dcb9 ab3a
00000050: 7bcd ac3a 6810 ae3a 268d 8937 50d0 aa37
00000060: 96c3 b1bd 7336 8bbd 79b0 3abd 8164 38bc
00000070: afac 4f3c 3cb1 353d 88d5 4bbd 8ee4 9e37
00000080: 2d38 ad3a 0d0a ac3a 1485 a93a d3d5 ad3a
00000090: fd7a ad3a 582a aa3a 20ce ad3a 0a98 a83a
000000a0: 2663 bcb7 8616 42bd 7daf 9bbd 6c55 eabc
000000b0: 9533 3fbd b7b9 8cbc 5bf5 97bc a949 5e3c
000000c0: 8572 173d 874f 10bd f394 ae3a 9986 a83a
000000d0: 09fd ab3a 3374 ae3a f7d0 a83a 4a18 ad3a
000000e0: 336e ad3a 4a87 ac3a 9698 dcbc 20f7 a7bd
000000f0: c2e7 bcbc 3448 93bd 4d93 a6bb 5334 56bd
00000100: c1f5 2fbd f49a 40bc 7b5c 67bc 5f82 433d
00000110: 6045 ab3a 4a64 a93a cc38 ae3a 19aa ab3a
00000120: 80e3 ab3a c6bf ab3a 0689 aa3a 490c ae3a
00000130: cb0c 95bc adc4 28bd 8879 803c 6bed 6dbd
00000140: ecb0 e8bc 6ae1 50bd 083e 15bd 2515 0abd
00000150: 2ace 29bd 90fe c93c 4671 ab3a 6c2a ad3a
00000160: 8814 ab3a 8cea a83a 114c ae3a 7100 ac3a
00000170: 68db a83a f071 a93a 73fd d1bd 9819 b4bd
00000180: 33aa c93c 652f 09bc becc 94bd 0ab5 96bd
00000190: 1123 cbbc 9392 2bbd ae0d 29bd 4394 07bd
000001a0: 2ca1 ac3a 7aa9 ad3a fc38 ae3a 9ba2 ab3a
000001b0: c7a2 a93a c290 ab3a 5d96 a93a f31c a83a
000001c0: 3ed3 a4bd b113 bbbd b015 393d 97ba 983c
000001d0: a312 92bd cd95 92bd ac70 96bd 703b ecbc
000001e0: 5b1b dcbc 39a5 97bd e012 a83a 2c65 ad3a
000001f0: fcc9 ac3a 2693 ab3a effb aa3a a2a1 ae3a
00000200: 713c a93a d20c a83a 2fa9 9bbd 5caa bcbd
00000210: 91ba 9d3c 0874 003d eca8 27bd 2fc4 77bd
00000220: 1a36 7abd a135 04bd 98c0 92bc 8b35 85bd
00000230: 1ae0 ad3a ed19 ae3a 6e70 ac3a c97d ab3a
00000240: 169d a83a 0acd a93a 949b ae3a baa3 ac3a
00000250: 0aed 1abd 947e cb3c 9fbc c53b beaa 2bbb
00000260: 0a48 9ebc ed37 b0bc 086f 9bbd 8207 7cbd
00000270: d922 9cbc 713d 00bd af33 a83a 41fd a93a
00000280: c422 a83a 6880 ac3a 262c ad3a a5e3 ae3a
00000290: 7a52 ad3a 7ca6 a93a 32b6 1bbd 62e9 913b
000002a0: cff2 66bc 2194 53bc 2484 a0bb 44a8 3fbd
000002b0: 49b4 28bd 3650 7fbd d9e9 91bd 9704 8dbd
000002c0: 4355 ac3a fa8d ab3a 6455 ae3a 94dd ae3a
000002d0: d7d8 ad3a 23d6 ab3a 2523 a83a 922c ae3a
000002e0: a168 d23c af8d 41bc 21e8 87bd f5d6 4bbd
000002f0: bdf8 053c 58e3 93bc 89c0 58bd d43e a1bd
00000300: 5e5f a9bd 5a87 b3bd a826 aa3a 73f0 a93a
00000310: bb00 a93a 9e21 ae3a 6a81 ae3a ac2e a83a
00000320: 3840 ae3a 439f ae3a 3aa5 e73c 5978 483c
00000330: 7be6 a73b a2d3 87bd 72da 4b3d 41bd 78bc
00000340: f286 2fbc 2e30 f8bd cf42 90bd b6a1 a8bd
00000350: 62df ad3a ebdd ac3a 5379 ab3a aad3 ae3a
00000360: fb9e aa3a bf8e ad3a 9dc0 a83a 6782 ad3a
00000370: e8aa 483b fac7 d33c c79e dfbc 8719 95bc
00000380: 4587 89bc 8efe b0bc 61a2 83bc 4883 bfbd
00000390: b987 98bd fad4 303b ba06 ac3a 58ec a93a
000003a0: 8995 ac3a 94a6 a93a 8b27 ab3a 79f4 ab3a
000003b0: 768f ae3a d4f1 a83a 7112 b83b da82 2e3d
000003c0: 8846 d03b 103c 223d 2f3d fd3c 2fde a2ba
000003d0: 34e6 8abd e32b a2bb 756c e1bc fbb1 86bc
000003e0: f26c ab3a 4ba8 a93a 26f1 ac3a 2cae aa3a
000003f0: 44b5 aa3a cbd9 a83a fec8 ac3a 293a ac3a
0.001327075 0.0013087409 0.001292857 0.001320044 2.512385e-05 -6.0391253e-06 -1.39241865e-05 -3.2209114e-06
-0.0607782 0.0385384 0.06201377 -2.1088304e-05 6.990842e-07 -1.5728934e-05 0.0013098564 0.0013033779
0.0013048545 0.0013007893 0.0013017688 0.0013101655 0.0013183797 0.0013280036 1.63974e-05 2.0362582e-05
-0.08679883 -0.06797495 -0.045578454 -0.011254431 0.012675448 0.044358477 -0.049764186 1.8941497e-05
0.0013215594 0.0013125554 0.0012933337 0.0013262577 0.0013235506 0.001298259 0.0013260283 0.0012862694
-2.2457516e-05 -0.04738476 -0.07601831 -0.028605185 -0.04668005 -0.0171784 -0.018549612 0.013567367
0.03697445 -0.035232093 0.0013319537 0.0012857496 0.0013121675 0.0013309777 0.0012879659 0.0013206091
0.0013231694 0.0013162878 -0.026928227 -0.08201432 -0.02305973 -0.07191506 -0.0050834776 -0.052295994
-0.04295898 -0.011755694 -0.01412117 0.047731753 0.001306694 0.0012923565 0.0013292073 0.0013096958
0.0013114065 0.0013103418 0.0013010807 0.0013278808 -0.018194577 -0.04120319 0.01568295 -0.058087748
-0.028404675 -0.05099622 -0.03643611 -0.03371157 -0.04145638 0.024657518 0.0013080023 0.0013211495
0.0013052383 0.0012887283 0.0013297816 0.001312269 0.0012882771 0.0012927633 -0.1025342 -0.08793944
0.02461729 -0.008373116 -0.07265614 -0.07358749 -0.024796994 -0.04188783 -0.04127281 -0.033100378
0.0013170592 0.001324936 0.0013292129 0.0013094725 0.0012942188 0.0013089406 0.0012938489 0.001282601
-0.08048104 -0.09134615 0.0451867 0.01864366 -0.07132461 -0.071574785 -0.07345709 -0.028836936
-0.026868513 -0.074045606 0.0012823008 0.0013229004 0.0013182755 0.0013090118 0.0013045053 0.0013323317
0.001291169 0.0012821204 -0.076006286 -0.09212181 0.019254 0.031360656 -0.04093258 -0.06048983
-0.06108675 -0.032277707 -0.017914101 -0.06504353 0.001326564 0.0013282873 0.0013156065 0.0013083752
0.0012864198 0.0012954783 0.0013321512 0.0013171353 -0.037823714 0.02484063 0.0060344483 -0.00261943
-0.01932146 -0.021511042 -0.07589537 -0.061530598 -0.019059585 -0.031308595 0.0012832786 0.0012969152
0.0012827744 0.0013160827 0.001321201 0.001334299 0.0013223432 0.0012943293 -0.038015552 0.00445287
-0.014095976 -0.012913735 -0.004898565 -0.04679133 -0.04118756 -0.062332354 -0.07124681 -0.06885641
0.0013147969 0.0013088577 0.0013300595 0.0013341182 0.0013263476 0.0013110082 0.0012827857 0.001328843
0.025684657 -0.011813565 -0.06636072 -0.049765546 0.00817698 -0.018052742 -0.05291799 -0.07873312
-0.08270143 -0.08766051 0.0012981491 0.0012965336 0.0012893894 0.0013285165 0.0013313715 0.0012831292
0.0013294285 0.001332261 0.028277028 0.012235724 0.005123911 -0.06632163 0.049768873 -0.01518184
-0.010713326 -0.121185645 -0.07043993 -0.08233969 0.0013265426 0.0013188695 0.0013082422 0.0013338227
0.001301735 0.0013241394 0.0012874786 0.0013237715 0.0030619446 0.025852192 -0.02729739 -0.018200649
-0.016788134 -0.021605756 -0.01606864 -0.09351212 -0.07447762 0.0026982413 0.0013124563 0.0012964113
0.0013167124 0.0012943321 0.0013058049 0.0013119123 0.0013317901 0.0012889453 0.0056174328 0.04260526
0.006356064 0.03960806 0.030912964 -0.0012425835 -0.06782189 -0.0049490794 -0.027517537 -0.01644229
0.0013078733 0.0012943832 0.0013194426 0.0013021878 0.0013023992 0.001288229 0.0013182459 0.0013139892

layer1.bias f4 [128]
00000000: 7b89 aa3a b728 94bb ff6b a8bb 132b 6bbc
00000010: 6547 afb9 4523 33bb 9ebe c0b7 c589 a9b8
00000020: 01cf 93b8 db7c b4bb 7d2a a83b b9d3 10b9
00000030: 6ada 153d 97db 9cbb 2761 8aba 426b 98ba
00000040: 7fb4 083b e28b 8b3b b5d8 b5ba f687 02ba
00000050: ea73 15bc 5611 7abb 7bec 9cbc 982f 9fbc
00000060: 8d8e afba a447 9bbb 8c9e 6d3c 4c6f 8c3b
00000070: 3aec e03a 307d fb3b f441 ca3b 190a cfb8
00000080: 1c65 b7bb bb20 373d 997c f8bb 2c61 5db9
00000090: 58f7 5cbb d096 da3c 2b37 a2bb 5436 72bc
000000a0: 0139 4dbc b2be edbb 8f36 d63b bdc5 0fbb
000000b0: 3aba ccbb cdf3 933b 81af 14b8 d3e8 fabb
000000c0: c5dd 8c37 cf0c 41bc c282 2f3c 59f1 a3b7
000000d0: 723c b23b 72e6 4cb8 dc45 323c d05b 27bc
000000e0: 55f1 93b8 b0ae 103b c2fd a1bb af5c 3ebb
000000f0: ecb0 1aba 971f bbb8 5547 78ba 2c72 87bc
00000100: 3a45 0ebb 03cb 01b9 1e3c 09b8 b278 4fb9
00000110: e9ad beb8 810e e4b7 35dd b63a 6ca2 a03d
00000120: 7af2 a93c e074 16b9 0c06 52bc 86c5 5e3d
00000130: b3bb 9cbb d0cc bcbb 28e1 1fba 5b84 09b8
00000140: b28c 22b9 bf24 1eb8 3a13 3a3b 5eb4 253c
00000150: 882c 143c 90cc a43b b10d ca3a 5dc9 f3b7
00000160: efa7 8ebb 6e68 acba 21ce 89ba ea39 c436
00000170: 4690 03ba 9038 c3b9 209f 40bc 117b cdba
00000180: b321 a8bb 897b c2bb 13a2 1fbb a936 13b9
00000190: 8219 c4ba cb82 b1bb be9a 503b fafd 0cbc
000001a0: 46a4 16ba c287 18bc 6f39 a2b7 ed6e f939
000001b0: 0ec4 693b a111 c8bb 570e 80bb 9198 aeba
000001c0: f36e 75bc 38bb e4bc 8d73 87ba dce2 8eb8
000001d0: 43c4 693b afbe 0cb9 76f0 cb3b dff1 1bbb
000001e0: 97b4 e63a 3219 f4ba 6109 fcb7 c637 53b8
000001f0: ec8d 3c3d e048 51b8 4e2d 8fbc 14ee c6b9
0.0013010943 -0.004521455 -0.0051398273 -0.014353531 -0.00033431794 -0.0027334255 -2.2976947e-05 -8.0842095e-05
-7.048064e-05 -0.005508048 0.005132018 -0.00013811783 0.03658525 -0.0047869193 -0.0010557518 -0.0011628645
0.0020859537 0.0042586187 -0.0013873788 -0.0004979366 -0.009121874 -0.0038157306 -0.019155731 -0.019431874
-0.0013393924 -0.004738765 0.014503133 0.0042857286 0.0017160245 0.0076748356 0.006172413 -9.87241e-05
-0.00559677 0.04470895 -0.0075832126 -0.00021112402 -0.0033716764 0.026683241 -0.004950424 -0.014783461
-0.012525798 -0.0072553987 0.0065372656 -0.002193793 -0.006247786 0.0045151473 -3.54494e-05 -0.0076571493
1.679257e-05 -0.011782839 0.010712327 -1.95435e-05 0.0054393345 -4.885201e-05 0.010880914 -0.010214761
-7.054458e-05 0.0022076778 -0.0049435804 -0.0029046943 -0.0005900997 -8.922739e-05 -0.00094710785 -0.016533934
-0.0021708743 -0.00012378026 -3.2719334e-05 -0.00019786021 -9.092299e-05 -2.7186472e-05 0.0013951423 0.078434795
0.020745505 -0.00014348654 -0.0128188245 0.05438759 -0.0047831177 -0.0057617202 -0.00060989195 -3.278661e-05
-0.00015501937 -3.7704358e-05 0.0028392808 0.010113804 0.00904382 0.0050292686 0.0015415457 -2.9061624e-05
-0.0043535153 -0.0013153681 -0.0010513702 5.8479973e-06 -0.0005018752 -0.0003723544 -0.011756688 -0.0015676935
-0.0051309704 -0.0059351367 -0.0024358078 -0.00014039375 -0.0014961215 -0.005417203 0.0031830515 -0.008605475
-0.00057465245 -0.009309711 -1.933865e-05 0.00047575627 0.0035669836 -0.006105617 -0.0039079594 -0.0013320615
-0.014980066 -0.027921304 -0.001033412 -6.8133435e-05 0.003566996 -0.00013422476 0.0062237335 -0.002379529
0.0017601427 -0.0018623231 -3.0045108e-05 -5.0358263e-05 0.046033785 -4.9897353e-05 -0.017477658 -0.00037942885

layer2.weight f4 [128, 128]
00000000: 04da 80be 5353 ef3d 66dc b03d b2ff 5cbe
00000010: 3345 b738 bda9 1ebf c7c7 b039 1c52 9e37
00000020: 793e 13b8 92ee 373e 3684 f83d 4204 dbb9
00000030: fc41 44bc 7594 90bd 9c7b 4d3c 7b0f 03be
00000040: 25fc 9dbd 1e9a 0d3e 19c5 893d 7ac0 4d3d
00000050: 5e74 223e 2c50 623c 9200 233e 74f0 69bd
00000060: d810 5b3d 9455 e9be c61d 263c 5bac 17be
00000070: 13d2 cd3b 2a91 0b3e 167a 43bf 5f18 9db8
00000080: 368a 873e 8857 a13b 7531 153e ae96 3939
00000090: a9e1 443d 8fd8 933c 4740 2fbe 43af fc3d
000000a0: 86d3 2cba 4750 3b3d 650e 84bc daaf 0dbd
000000b0: 0f85 febd efbd 39be f94c 1a39 2c9b e4bb
000000c0: 747c 87b8 70b5 f4bd 3a19 493a e7c9 f338
000000d0: 0162 463e 010e d438 6163 a63c 66a0 31be
000000e0: ff89 ae38 f858 57bf 3f57 af3d 0cc1 b9bd
000000f0: 154f 8239 8edf 5337 22f9 ff3d 44b1 18be
00000100: d9fc 7bbf dda2 25be ecba 5236 3121 383e
00000110: 8d33 1439 e156 0e39 3478 a7bc 6002 523b
00000120: c09e 0e3e e097 b038 5d24 3fbe bb36 babc
00000130: 091b 2f3e c52c 0fbe adc4 b338 6368 ae38
00000140: 50c1 4e39 e540 60b9 c53e 843d 3ccd 5fbd
00000150: b5a0 813d a059 a23d 413e 253d 2506 ad39
00000160: 7e8a 213e 61d4 74bf b932 d13d d514 cbb7
00000170: aff5 30be fb7b 3ebe 5faa efbc db52 363e
00000180: 23b5 febc 054f 5b3e e1eb e43d 213e 13ba
00000190: 5392 5abd 16d9 b83d 5772 be3d 69da 4d3e
000001a0: 1edd a63d 1995 36be 232e f038 51ea 903d
000001b0: 24c9 4db9 7ace 6a3e eec1 193e 23b2 953b
000001c0: 0f1b c3bd e967 b43b a41e cfbc d5d5 9338
000001d0: ed2a 06be 4cd9 4eb9 754c 41be 584d f7ba
000001e0: 3655 a93d b561 483d d563 13b8 6d10 0739
000001f0: 61a2 64bd 2079 8eb7 a35f 0ebd 4f34 37bb
00000200: cd59 d4b9 de08 e6b9 1906 58b8 9706 9ab8
00000210: 2a8a 2739 7649 92b9 ff31 9039 d720 bc36
00000220: b3b1 2db7 944c 82b8 5572 35b8 de4a f935
00000230: c83c bcb9 97ad 5cba 671f 1eb8 9741 1837
00000240: 4d51 2839 900c 48b9 cce7 9935 05de b1b8
00000250: 70c1 aab8 79bb 34b9 2be8 2038 f8b3 4db9
00000260: b914 9fb9 666d 43b9 2113 85b8 cfb4 31b8
00000270: bc44 d7b8 55de ef38 d36c 12b9 f52a d736
00000280: aef4 84b9 f352 e6b8 77a3 21b9 bb17 1939
00000290: 4f75 fd38 2d0d ffb9 fdff 36b7 042d 2bb9
000002a0: 80bb 13b9 905a 10b8 4be8 adb8 8e10 1db9
000002b0: 45f6 18b9 f634 5138 3561 3238 e74b 1337
000002c0: 54b0 4938 71e7 e6b8 f72c b439 2f6e c138
000002d0: 275d 30b8 dec8 0338 23f8 a1b8 4935 13ba
000002e0: 8929 9138 b518 5f37 78a5 0dba e420 acb9
000002f0: 7ed2 2539 cfe7 9038 bdf7 6938 6d3b 0ab9
00000300: 9ca7 0eba 122d 69b8 3802 f238 1a46 8eb8
00000310: 65f6 4a39 6283 1e39 350f 31b9 666b a2b9
00000320: ef47 a5b8 6ce6 dd38 c05e fab9 ef4e 2d38
00000330: fad3 8cb6 e541 92b9 fbea 1939 7fbc 2638
00000340: 7f8a 0039 ec68 fb38 d6b3 a838 e199 bdb9
00000350: 770b 66b9 0ff1 07b9 30b7 db38 52ce 0839
00000360: 3516 4bb9 ae88 a8b9 eb94 85b9 8b3a a136
00000370: 505a 1739 0e75 2eba d460 8c39 17fa 9637
00000380: d9cb 2238 5a96 dc38 705a 5ab9 b89a 7139
00000390: 856a deb9 f29b fab9 e507 6039 1140 1ab9
000003a0: a1ff 4bb9 b847 d5b8 4747 8a38 97de 34b8
000003b0: 6dc9 7b39 3491 a837 31e3 0c39 8ca3 f2b8
000003c0: 788b 0fb9 2547 9838 b35d c6b9 d1c5 3338
000003d0: bf4e 12b9 e769 5d38 4a1c 16b8 0f15 4538
000003e0: 050e 5938 ccb0 0bba c5c8 ed38 c4bf 9e38
000003f0: a8f0 8db9 ddf2 1b37 8c57 8037 bbd6 32b9
-0.25166333 0.11685815 0.08635788 -0.21581915 8.739009e-05 -0.6197775 0.00033718182 1.8873303e-05
-3.5105713e-05 0.17962101 0.12134592 -0.00041774107 -0.0119786225 -0.07059566 0.012541678 -0.12798874
-0.077141084 0.13828322 0.067270465 0.050232388 0.15864703 0.01381306 0.15918186 -0.05711408
0.05348286 -0.45573103 0.0101389345 -0.14811842 0.0062811463 0.13629594 -0.76358163 -7.490883e-05
0.26472634 0.0049237646 0.14569648 0.00017699107 0.04806677 0.0180476 -0.17114364 0.12338116
-0.0006592799 0.045730855 -0.016120145 -0.034591533 -0.12427723 -0.1813886 0.00014715259 -0.0069765057
-6.460483e-05 -0.11948669 0.00076713006 0.0001162475 0.19373323 0.00010111556 0.02031106 -0.17346343
8.32267e-05 -0.8412013 0.08561563 -0.09070024 0.00024854453 1.262863e-05 0.1249869 -0.14911371
-0.9843269 -0.16175409 3.1401241e-06 0.17981412 0.00014133584 0.0001357454 -0.02044306 0.0032044873
0.13927746 8.420623e-05 -0.18666215 -0.022731176 0.17100157 -0.13981922 8.572019e-05 8.31641e-05
0.00019717705 -0.0002138648 0.06457285 -0.054639086 0.063294806 0.07927251 0.040342573 0.0003300171
0.15775487 -0.95636564 0.10214753 -2.4209186e-05 -0.17281221 -0.18601982 -0.029256044 0.17805044
-0.031092232 0.21416862 0.11177803 -0.0005616863 -0.053362202 0.09025781 0.09299152 0.20102848
0.081476435 -0.17830314 0.000114526854 0.07075942 -0.00019625254 0.22930327 0.15015385 0.0045683547
-0.095266454 0.005505551 -0.025283165 7.0493355e-05 -0.13102312 -0.0001972664 -0.18876822 -0.0018867655
0.08268206 0.048921306 -3.5140507e-05 0.00012880722 -0.05581892 -1.6984122e-05 -0.034759175 -0.0027954762
-0.00040502698 -0.00043875625 -5.1504092e-05 -7.34452e-05 0.00015977831 -0.00027902023 0.0002750307 5.6066597e-06
-1.0352977e-05 -6.213147e-05 -4.3260243e-05 1.8573735e-06 -0.0003590344 -0.0008418201 -3.769938e-05 9.075177e-06
0.00016052015 -0.00019078166 1.146685e-06 -8.481372e-05 -8.142262e-05 -0.00017235977 3.8363196e-05 -0.00019617367
-0.00030342283 -0.00018637403 -6.345497e-05 -4.236848e-05 -0.00010264802 0.00011437821 -0.00013964185 6.4125e-06
-0.00025359303 -0.00010982705 -0.00015415052 0.00014600057 0.000120858305 -0.00048647207 -1.0907647e-05 -0.000163246
-0.00014088862 -3.441662e-05 -8.292551e-05 -0.00014978854 -0.00014587592 4.9878807e-05 4.252904e-05 8.779555e-06
4.8086353e-05 -0.00011010364 0.00034365777 9.2234804e-05 -4.2048425e-05 3.1419906e-05 -7.723297e-05 -0.0005615545
6.921875e-05 1.3297588e-05 -0.000540338 -0.00032830902 0.0001581404 6.909633e-05 5.5782253e-05 -0.00013182843
-0.0005441846 -5.5593504e-05 0.000115398725 -6.784145e-05 0.0001935601 0.00015116998 -0.000168857 -0.00030979066
-7.881212e-05 0.000105810206 -0.0004775431 4.1319927e-05 -4.1970025e-06 -0.00027896385 0.00014678754 3.9753035e-05
0.00012258625 0.00011988156 8.044361e-05 -0.00036163538 -0.0002193878 -0.00012964405 0.00010476855 0.00013046831
-0.00019367861 -0.0003214529 -0.0002547869 4.804989e-06 0.00014434126 -0.0006655016 0.00026775023 1.799785e-05
3.8813658e-05 0.00010518423 -0.0002082379 0.00023041188 -0.00042422503 -0.00047799904 0.00021365246 -0.00014710451
-0.00019454818 -0.0001016999 6.593629e-05 -4.3122647e-05 0.00024012262 2.0094776e-05 0.00013436076 -0.00011569922
-0.00013689499 7.2611765e-05 -0.00037835314 4.2861157e-05 -0.0001395298 5.2789135e-05 -3.5789133e-05 4.6988072e-05
5.174989e-05 -0.0005328774 0.00011338437 7.569746e-05 -0.0002707292 9.295266e-06 1.5299556e-05 -0.00017055396

layer2.bias f4 [128]
00000000: 2b61 18bc 31dc a8b8 c325 943c e36d 0dbc
00000010: 8f81 113e 47e0 0c3e 3ade 053e 5697 1abd
00000020: f673 f03c 8e3d 81bc 2f19 303e 162a 73bc
00000030: 14be 133e 7088 b03c 3cb6 9fbb 8300 6cbc
00000040: ac59 613d 796a 1cbd 4ee3 243b 1f20 313d
00000050: 30cb ee3d e7a7 34bc 6040 073e 63ad 76bc
00000060: 8e81 443c 408c 2e3b 08c5 3b3e 5c53 17bc
00000070: 3229 a1bc ce6c 053d 38d6 30bd d178 babc
00000080: 437d 013e e319 e7bc b5ab 483c ef63 783c
00000090: 7591 9bbd fcc5 4d3c c10d e43d d1a7 a1bb
000000a0: 0856 d93d 67db 52bc 38ee 48bc bc9b ce3d
000000b0: c1f4 d4bc 0202 b9bb dbd3 b2bc f93b c13c
000000c0: f62a c03d 30ae 683b 8510 2d3e 92de 15bd
000000d0: d6a2 8f3d 1626 1fbc 2cf1 aebd 4f86 733c
000000e0: 1469 053c c5e3 593d 5b03 8fbc 5224 403d
000000f0: 0f31 f83d 849c 1b3e 3025 803b 495b f03b
00000100: fdd8 77bc 2d70 30bc ff2c ec3c cd01 fb3d
00000110: be4f 993c 830c da3d 095b b73c f89a 03bc
00000120: 2492 c53d 3d5b 073c 243f 113b 6ab3 a0bb
00000130: 8ae0 a23d d09b 8cbb f2c2 2a3e d657 453d
00000140: ead2 4f3c 8be4 b7bc 01cf 3d3e 3037 57bb
00000150: d767 e3bd 4eee 643e 679a ae3c aa97 0f3d
00000160: 8f2f d3bb 3247 f8bc 1adf 8ebc ddcc 4f3d
00000170: 4b9f ea3c 223a b5bb 852c b93d 577f 733d
00000180: fcc3 8ebb 05e7 e13d 6305 393d 5a78 c43d
00000190: 5079 013c eff4 f13b 45cc bcbb f1a1 f7bc
000001a0: ccd2 4438 28e6 42bc b30d 3f3e 5265 f6bb
000001b0: 90e8 213d fb24 0b3d ce82 06be 75a1 6b3d
000001c0: cbed b63d ea3e efbc abd7 4bbb a2fe b43d
000001d0: 8987 e03c 00c9 0ab9 f0d0 8d3d 940a 19bb
000001e0: 4cc0 383c 1784 0a3e 43d9 ea3b 97e5 203d
000001f0: c687 243e e265 323d 9823 4e3d 3742 84bd
-0.00930051 -8.051878e-05 0.018084412 -0.008632156 0.14209579 0.1375743 0.13073054 -0.03774198
0.02935217 -0.015776422 0.17197107 -0.014841577 0.14427978 0.021549433 -0.004874019 -0.014404419
0.05501716 -0.038187478 0.0025159898 0.043243524 0.11659849 -0.011026359 0.13208151 -0.015055987
0.011993779 0.0026633888 0.1833688 -0.009236183 -0.019672964 0.032574467 -0.043173045 -0.022762688
0.1264544 -0.028210586 0.012247969 0.015160545 -0.07596103 0.01255941 0.11135436 -0.0049333354
0.10612112 -0.012869692 -0.012263827 0.10088298 -0.025995614 -0.0056459913 -0.021829536 0.023588168
0.09383194 0.0035504214 0.16900833 -0.036589213 0.0701348 -0.00971367 -0.08542094 0.014863565
0.008142728 0.053195734 -0.017457655 0.046909638 0.12118732 0.15196425 0.003910683 0.007335101
-0.015127418 -0.010768932 0.02883005 0.12256203 0.018714782 0.10646918 0.022382276 -0.008032553
0.09647015 0.008261499 0.002216288 -0.0049042003 0.07952984 -0.0042910352 0.16675928 0.04817947
0.012684563 -0.022447845 0.18535997 -0.003283929 -0.1110379 0.22356531 0.02131386 0.035056747
-0.0064448784 -0.030307386 -0.017440367 0.050732482 0.02864041 -0.0055306116 0.090416946 0.059447613
-0.0043568593 0.110303916 0.045171153 0.09593268 0.007902458 0.0073839347 -0.0057616555 -0.030228587
4.692636e-05 -0.011895694 0.1865757 -0.0075194025 0.03952843 0.033970814 -0.13135836 0.057527024
0.08932074 -0.029204804 -0.003110389 0.0883763 0.027408378 -0.00013235584 0.06924617 -0.0023352252
0.011276316 0.13526951 0.007167013 0.039281454 0.16067418 0.043554194 0.050326914 -0.06457942

layer3.weight f4 [8, 128]
00000000: 06b4 153f e9e9 bf38 3af2 d63d c444 743e
00000010: 425a af3d dac9 013e 0525 c1be cd0e f93d
00000020: 4c5f f7bc 1b9d 3c3e a0d2 913d 5821 9cbf
00000030: 7087 9d3d 4963 d93d a746 a63e 6225 23bf
00000040: 21f7 bd3d f293 acbd 19fc 673c ec70 8e3d
00000050: 70af 213e d37c 813d e945 9f3d a6d5 8d3e
00000060: e530 993c 939f c2bd 7b03 893d ee43 ac3b
00000070: 6830 2a3f a28e 5ebb 432f 163e 957d aabc
00000080: 6d48 c53d 651b 063d 5c7a 56bd 65cb b33c
00000090: 7bef c2bd a4ea 0d3f edf0 c33d c9fc c53e
000000a0: 1833 a63d dab6 80be a9e3 fc3e b8cb 1b3e
000000b0: 9071 f7bd 7ede bf3d 04c2 52bd a9fb 353f
000000c0: cedc 393d 75fb 7f3c 0026 9c3d 89e3 6dbd
000000d0: 51c2 593d 698b d63d 3096 b9bd fd47 ef3c
000000e0: 0340 f53d e99c 7e3d 39df 203e e197 5f3d
000000f0: 63b8 d03d 9540 b43d 5c2b 0f3f 244c d63e
00000100: 2412 02be 1458 ae3e 1d50 503d 4adf e83d
00000110: 01e7 3b3d 45a2 b93d d9e4 2f3c d1f6 acbe
00000120: 6f0f dd3d 78a8 9c3d cd25 0fbf bf15 b43e
00000130: 7f95 a13d 0620 d23e f7a2 ad3d e3f7 d9bf
00000140: 7590 f23c 3b76 a7bd a59f 043e 6cc3 a43e
00000150: b991 59be 8e68 043e 8d29 e33c f6f3 813d
00000160: 8f1e 3bbf b704 cfbd 204b 41bd 375b 083e
00000170: 854b 543d 2e50 dd3e ddf7 343d 1747 8a3d
00000180: 1261 613e 1659 913d 0faf 403d 8c0a b23d
00000190: 91a6 8f3c 4846 f03c 062c ba3e d746 32bc
000001a0: 49e2 c2bb c388 6e3d 6c89 5b3d 1ad8 e43e
000001b0: c96b b73d 4424 9b3d 9c98 c3bd 2fac a83d
000001c0: a449 0c3e cb3d f0bc 028b ab3e 1223 803d
000001d0: 566a 243e 9c36 4eb8 d586 4a3d c888 983e
000001e0: b637 043c 6451 ce3d 6549 ec3c b84d a63d
000001f0: 410e 943d 82f1 883d e440 693d 4ae7 88bd
00000200: 770a 6d3e 1370 f8b6 f78b 0e3e 87eb 823e
00000210: 48cf 823d a975 ef3d e575 3bbc 0edf a2bd
00000220: b929 88bd b76e 113e 8658 8e3d 8b0a cabf
00000230: 3d5a 8a3d 03a2 b73d 52d7 b43e c864 94bf
00000240: fdce 193e e0ab 0bbe 4aad 6b3c b8ab 883d
00000250: 638b e13d d468 96bd ed13 943d 769c 0b3f
00000260: a9c1 903c 4537 1f3f e040 893d 47a9 8db9
00000270: a04c ee3e 0e96 bbbd 5f6b 113e 1a64 abbc
00000280: 86c8 b33d d72c 8dbd 7000 9f3d 292f 4c3c
00000290: c9bc acbd 211c 0c3f fc3a 953d a9ed b93e
000002a0: 5486 813d 4ba4 2b3c ac70 3b3f d765 2c3e
000002b0: 08f1 ffbc c721 73be 4cbb 8cbd e8d1 923e
000002c0: 092d d73d 60fe 4a3c 02e4 823d ff76 37bd
000002d0: 0109 813d b337 593e 38bd a7bd a9fd 2d3d
000002e0: 018b bf3d 03a5 7d3d 4379 013e ba9a 783d
000002f0: 3d28 553d d7de 743d ba5f 193f 36f6 56bd
00000300: cff9 4a3e 4203 5e3e 19c5 613d ac5c c43d
00000310: 9631 863d 47e4 b33d 1dae 683c aa38 0ebf
00000320: 39ee 0b3e 3d56 573d a99a 923d ded2 ea3e
00000330: 3782 913d efa5 b53e 692a 7d3d f121 623e
00000340: a5f2 2d3d b388 afbd 57d8 093e 16b1 8e3e
00000350: 6aa2 9fbe 2bd6 213e b03b 643c 361c 803d
00000360: 0a33 34bf 07f2 c8bd fd5d 8fbd 88b5 de3d
00000370: cd99 f13c 00ac e13e 1880 c43d c825 463d
00000380: 2d40 c93e 6bdb b33d 6190 f63c 3769 9e3d
00000390: 4681 193d 4903 123d a33a b13e 8a4a d83c
000003a0: 1dd1 833b eab3 963e 761c 993d d359 153f
000003b0: c194 dbbf e295 7e3d 7cec c3bd 8547 963d
000003c0: 30ea 133e c61a b4bc 7b5b 653e db63 a93d
000003d0: 95ea 203e 250f 1339 1adf 393d 8279 9d3e
000003e0: c896 4f3c 0ee7 9d3d 2781 0a3d b71d c53d
000003f0: eac0 983d 4593 8b3d 7e24 863d 430a 7abd
0.5847782 9.151159e-05 0.1049542 0.23854357 0.08562137 0.12674657 -0.37723556 0.12161026
-0.030196808 0.18419306 0.07120252 -1.2197676 0.07691848 0.1061464 0.32475778 -0.63728917
0.09275652 -0.08426656 0.014159226 0.06955132 0.1578958 0.063226365 0.07777006 0.27702063
0.018700073 -0.095030926 0.06690117 0.0052571213 0.6648011 -0.0033959527 0.14666466 -0.020811835
0.09632955 0.03274097 -0.052362785 0.021947572 -0.095183335 0.5543616 0.09567437 0.38669422
0.08115214 -0.25139505 0.4939244 0.15214431 -0.12082207 0.09368609 -0.05145456 0.7108713
0.04537659 0.015623917 0.076244354 -0.058078323 0.05316383 0.10475809 -0.09061849 0.029209131
0.119751 0.06216136 0.15710153 0.054588202 0.10191419 0.088013805 0.55925536 0.41854966
-0.12702233 0.34051573 0.050857652 0.11370714 0.0458746 0.090641536 0.010735714 -0.33782056
0.10793959 0.0764932 -0.55917054 0.3517284 0.07889842 0.41040057 0.08478349 -1.7028774
0.029609898 -0.081768475 0.12951525 0.32180345 -0.21246995 0.1293051 0.027729774 0.0634536
-0.73093504 -0.10108321 -0.047190785 0.13316046 0.051829834 0.43225235 0.044181693 0.067518406
0.22009686 0.0709707 0.04704195 0.08693418 0.01753548 0.029330388 0.36361712 -0.010881147
-0.0059473854 0.058235895 0.053597853 0.44696122 0.08956105 0.075752765 -0.09550592 0.082359664
0.13699967 -0.02932634 0.33504492 0.06256689 0.16056189 -4.9165086e-05 0.049444992 0.29791856
0.008069923 0.10074118 0.028843591 0.081202924 0.07229281 0.06686689 0.05694665 -0.0668474
0.23148523 -7.404023e-06 0.1392058 0.25570318 0.06387192 0.11692364 -0.011441682 -0.079527006
-0.06648583 0.1420239 0.06950478 -1.5784467 0.06755493 0.08966448 0.35320526 -1.1593256
0.15020366 -0.13639784 0.014384577 0.06673378 0.11012914 -0.07344213 0.07230363 0.54535615
0.01767047 0.6219371 0.06701827 -0.00027019737 0.46542835 -0.0915948 0.14201115 -0.020921756
0.08778481 -0.06893318 0.07763755 0.012462416 -0.084344454 0.5473042 0.07286641 0.36314133
0.06324449 0.010476182 0.732188 0.16835724 -0.031242862 -0.23743354 -0.068716615 0.2867577
0.10506637 0.012389749 0.06391145 -0.044791218 0.063005455 0.21212654 -0.081903875 0.042478237
0.09352685 0.061924946 0.12643914 0.060694434 0.052040327 0.05978283 0.5991169 -0.0524809
0.19821857 0.2168093 0.055119608 0.09587988 0.065524265 0.08783775 0.014201668 -0.5555521
0.13665093 0.052572478 0.07158405 0.45864004 0.07104915 0.3547816 0.061808024 0.2208326
0.042467732 -0.08570995 0.13461433 0.2786948 -0.311786 0.15804355 0.013930246 0.06255381
-0.7039038 -0.09811788 -0.07000349 0.10874468 0.029492283 0.44076538 0.095947444 0.048375875
0.39306775 0.08782085 0.030098142 0.07734912 0.0374768 0.035647664 0.3461505 0.02640273
0.004022731 0.2943414 0.074761316 0.58340186 -1.7154771 0.06215466 -0.0956659 0.0733786
0.14444804 -0.021985423 0.22398178 0.08270999 0.15714486 0.00014024654 0.04537878 0.30756766
0.012670226 0.07710086 0.033814576 0.09624808 0.074586704 0.06815199 0.06549929 -0.061044943

layer3.bias f4 [8]
00000000: 4161 9d3c f059 c63d db82 e43d 8acd 763d
00000010: 093c ac3d 206a 663e 6492 0a3e 630e b83d
0.019211413 0.09685123 0.11157771 0.06025461 0.08409888 0.22501421 0.13532406 0.08987119
